node {
  name: "global_step/Initializer/zeros"
  op: "Const"
  attr {
    key: "_class"
    value {
      list {
        s: "loc:@global_step"
      }
    }
  }
  attr {
    key: "dtype"
    value {
      type: DT_INT64
    }
  }
  attr {
    key: "value"
    value {
      tensor {
        dtype: DT_INT64
        tensor_shape {
        }
        int64_val: 0
      }
    }
  }
}
node {
  name: "global_step"
  op: "VariableV2"
  device: "/device:CPU:0"
  attr {
    key: "_class"
    value {
      list {
        s: "loc:@global_step"
      }
    }
  }
  attr {
    key: "container"
    value {
      s: ""
    }
  }
  attr {
    key: "dtype"
    value {
      type: DT_INT64
    }
  }
  attr {
    key: "shape"
    value {
      shape {
      }
    }
  }
  attr {
    key: "shared_name"
    value {
      s: ""
    }
  }
}
node {
  name: "global_step/Assign"
  op: "Assign"
  input: "global_step"
  input: "global_step/Initializer/zeros"
  device: "/device:CPU:0"
  attr {
    key: "T"
    value {
      type: DT_INT64
    }
  }
  attr {
    key: "_class"
    value {
      list {
        s: "loc:@global_step"
      }
    }
  }
  attr {
    key: "use_locking"
    value {
      b: true
    }
  }
  attr {
    key: "validate_shape"
    value {
      b: true
    }
  }
}
node {
  name: "global_step/read"
  op: "Identity"
  input: "global_step"
  device: "/device:CPU:0"
  attr {
    key: "T"
    value {
      type: DT_INT64
    }
  }
  attr {
    key: "_class"
    value {
      list {
        s: "loc:@global_step"
      }
    }
  }
}
node {
  name: "synthetic_images/shape"
  op: "Const"
  device: "/device:CPU:0"
  attr {
    key: "dtype"
    value {
      type: DT_INT32
    }
  }
  attr {
    key: "value"
    value {
      tensor {
        dtype: DT_INT32
        tensor_shape {
          dim {
            size: 4
          }
        }
        tensor_content: "\001\000\000\000\340\000\000\000\340\000\000\000\003\000\000\000"
      }
    }
  }
}
node {
  name: "synthetic_images/mean"
  op: "Const"
  device: "/device:CPU:0"
  attr {
    key: "dtype"
    value {
      type: DT_FLOAT
    }
  }
  attr {
    key: "value"
    value {
      tensor {
        dtype: DT_FLOAT
        tensor_shape {
        }
        float_val: 0.0
      }
    }
  }
}
node {
  name: "synthetic_images/stddev"
  op: "Const"
  device: "/device:CPU:0"
  attr {
    key: "dtype"
    value {
      type: DT_FLOAT
    }
  }
  attr {
    key: "value"
    value {
      tensor {
        dtype: DT_FLOAT
        tensor_shape {
        }
        float_val: 0.10000000149
      }
    }
  }
}
node {
  name: "synthetic_images/TruncatedNormal"
  op: "TruncatedNormal"
  input: "synthetic_images/shape"
  device: "/device:CPU:0"
  attr {
    key: "T"
    value {
      type: DT_INT32
    }
  }
  attr {
    key: "dtype"
    value {
      type: DT_FLOAT
    }
  }
  attr {
    key: "seed"
    value {
      i: 1234
    }
  }
  attr {
    key: "seed2"
    value {
      i: 7
    }
  }
}
node {
  name: "synthetic_images/mul"
  op: "Mul"
  input: "synthetic_images/TruncatedNormal"
  input: "synthetic_images/stddev"
  device: "/device:CPU:0"
  attr {
    key: "T"
    value {
      type: DT_FLOAT
    }
  }
}
node {
  name: "synthetic_images"
  op: "Add"
  input: "synthetic_images/mul"
  input: "synthetic_images/mean"
  device: "/device:CPU:0"
  attr {
    key: "T"
    value {
      type: DT_FLOAT
    }
  }
}
node {
  name: "synthetic_labels/shape"
  op: "Const"
  device: "/device:CPU:0"
  attr {
    key: "dtype"
    value {
      type: DT_INT32
    }
  }
  attr {
    key: "value"
    value {
      tensor {
        dtype: DT_INT32
        tensor_shape {
          dim {
            size: 1
          }
        }
        int_val: 1
      }
    }
  }
}
node {
  name: "synthetic_labels/min"
  op: "Const"
  device: "/device:CPU:0"
  attr {
    key: "dtype"
    value {
      type: DT_INT32
    }
  }
  attr {
    key: "value"
    value {
      tensor {
        dtype: DT_INT32
        tensor_shape {
        }
        int_val: 0
      }
    }
  }
}
node {
  name: "synthetic_labels/max"
  op: "Const"
  device: "/device:CPU:0"
  attr {
    key: "dtype"
    value {
      type: DT_INT32
    }
  }
  attr {
    key: "value"
    value {
      tensor {
        dtype: DT_INT32
        tensor_shape {
        }
        int_val: 1000
      }
    }
  }
}
node {
  name: "synthetic_labels"
  op: "RandomUniformInt"
  input: "synthetic_labels/shape"
  input: "synthetic_labels/min"
  input: "synthetic_labels/max"
  device: "/device:CPU:0"
  attr {
    key: "T"
    value {
      type: DT_INT32
    }
  }
  attr {
    key: "Tout"
    value {
      type: DT_INT32
    }
  }
  attr {
    key: "seed"
    value {
      i: 1234
    }
  }
  attr {
    key: "seed2"
    value {
      i: 13
    }
  }
}
node {
  name: "images"
  op: "VariableV2"
  device: "/device:CPU:0"
  attr {
    key: "container"
    value {
      s: ""
    }
  }
  attr {
    key: "dtype"
    value {
      type: DT_FLOAT
    }
  }
  attr {
    key: "shape"
    value {
      shape {
        dim {
          size: 1
        }
        dim {
          size: 224
        }
        dim {
          size: 224
        }
        dim {
          size: 3
        }
      }
    }
  }
  attr {
    key: "shared_name"
    value {
      s: ""
    }
  }
}
node {
  name: "images/Assign"
  op: "Assign"
  input: "images"
  input: "synthetic_images"
  device: "/device:CPU:0"
  attr {
    key: "T"
    value {
      type: DT_FLOAT
    }
  }
  attr {
    key: "_class"
    value {
      list {
        s: "loc:@images"
      }
    }
  }
  attr {
    key: "use_locking"
    value {
      b: true
    }
  }
  attr {
    key: "validate_shape"
    value {
      b: true
    }
  }
}
node {
  name: "images/read"
  op: "Identity"
  input: "images"
  device: "/device:CPU:0"
  attr {
    key: "T"
    value {
      type: DT_FLOAT
    }
  }
  attr {
    key: "_class"
    value {
      list {
        s: "loc:@images"
      }
    }
  }
}
node {
  name: "labels"
  op: "VariableV2"
  device: "/device:CPU:0"
  attr {
    key: "container"
    value {
      s: ""
    }
  }
  attr {
    key: "dtype"
    value {
      type: DT_INT32
    }
  }
  attr {
    key: "shape"
    value {
      shape {
        dim {
          size: 1
        }
      }
    }
  }
  attr {
    key: "shared_name"
    value {
      s: ""
    }
  }
}
node {
  name: "labels/Assign"
  op: "Assign"
  input: "labels"
  input: "synthetic_labels"
  device: "/device:CPU:0"
  attr {
    key: "T"
    value {
      type: DT_INT32
    }
  }
  attr {
    key: "_class"
    value {
      list {
        s: "loc:@labels"
      }
    }
  }
  attr {
    key: "use_locking"
    value {
      b: true
    }
  }
  attr {
    key: "validate_shape"
    value {
      b: true
    }
  }
}
node {
  name: "labels/read"
  op: "Identity"
  input: "labels"
  device: "/device:CPU:0"
  attr {
    key: "T"
    value {
      type: DT_INT32
    }
  }
  attr {
    key: "_class"
    value {
      list {
        s: "loc:@labels"
      }
    }
  }
}
node {
  name: "StagingArea_root/NoOp"
  op: "NoOp"
  device: "/device:CPU:0"
}
node {
  name: "group_deps"
  op: "NoOp"
}
node {
  name: "v/tower_0/synthetic_images/shape"
  op: "Const"
  device: "/device:GPU:0"
  attr {
    key: "dtype"
    value {
      type: DT_INT32
    }
  }
  attr {
    key: "value"
    value {
      tensor {
        dtype: DT_INT32
        tensor_shape {
          dim {
            size: 4
          }
        }
        tensor_content: "\001\000\000\000\340\000\000\000\340\000\000\000\003\000\000\000"
      }
    }
  }
}
node {
  name: "v/tower_0/synthetic_images/mean"
  op: "Const"
  device: "/device:GPU:0"
  attr {
    key: "dtype"
    value {
      type: DT_FLOAT
    }
  }
  attr {
    key: "value"
    value {
      tensor {
        dtype: DT_FLOAT
        tensor_shape {
        }
        float_val: 127.0
      }
    }
  }
}
node {
  name: "v/tower_0/synthetic_images/stddev"
  op: "Const"
  device: "/device:GPU:0"
  attr {
    key: "dtype"
    value {
      type: DT_FLOAT
    }
  }
  attr {
    key: "value"
    value {
      tensor {
        dtype: DT_FLOAT
        tensor_shape {
        }
        float_val: 60.0
      }
    }
  }
}
node {
  name: "v/tower_0/synthetic_images/TruncatedNormal"
  op: "TruncatedNormal"
  input: "v/tower_0/synthetic_images/shape"
  device: "/device:GPU:0"
  attr {
    key: "T"
    value {
      type: DT_INT32
    }
  }
  attr {
    key: "dtype"
    value {
      type: DT_FLOAT
    }
  }
  attr {
    key: "seed"
    value {
      i: 1234
    }
  }
  attr {
    key: "seed2"
    value {
      i: 25
    }
  }
}
node {
  name: "v/tower_0/synthetic_images/mul"
  op: "Mul"
  input: "v/tower_0/synthetic_images/TruncatedNormal"
  input: "v/tower_0/synthetic_images/stddev"
  device: "/device:GPU:0"
  attr {
    key: "T"
    value {
      type: DT_FLOAT
    }
  }
}
node {
  name: "v/tower_0/synthetic_images"
  op: "Add"
  input: "v/tower_0/synthetic_images/mul"
  input: "v/tower_0/synthetic_images/mean"
  device: "/device:GPU:0"
  attr {
    key: "T"
    value {
      type: DT_FLOAT
    }
  }
}
node {
  name: "v/tower_0/gpu_cached_images"
  op: "VariableV2"
  device: "/device:GPU:0"
  attr {
    key: "container"
    value {
      s: ""
    }
  }
  attr {
    key: "dtype"
    value {
      type: DT_FLOAT
    }
  }
  attr {
    key: "shape"
    value {
      shape {
        dim {
          size: 1
        }
        dim {
          size: 224
        }
        dim {
          size: 224
        }
        dim {
          size: 3
        }
      }
    }
  }
  attr {
    key: "shared_name"
    value {
      s: ""
    }
  }
}
node {
  name: "v/tower_0/gpu_cached_images/Assign"
  op: "Assign"
  input: "v/tower_0/gpu_cached_images"
  input: "v/tower_0/synthetic_images"
  device: "/device:GPU:0"
  attr {
    key: "T"
    value {
      type: DT_FLOAT
    }
  }
  attr {
    key: "_class"
    value {
      list {
        s: "loc:@v/tower_0/gpu_cached_images"
      }
    }
  }
  attr {
    key: "use_locking"
    value {
      b: true
    }
  }
  attr {
    key: "validate_shape"
    value {
      b: true
    }
  }
}
node {
  name: "v/tower_0/gpu_cached_images/read"
  op: "Identity"
  input: "v/tower_0/gpu_cached_images"
  device: "/device:GPU:0"
  attr {
    key: "T"
    value {
      type: DT_FLOAT
    }
  }
  attr {
    key: "_class"
    value {
      list {
        s: "loc:@v/tower_0/gpu_cached_images"
      }
    }
  }
}
node {
  name: "v/tower_0/synthetic_labels/shape"
  op: "Const"
  device: "/device:GPU:0"
  attr {
    key: "dtype"
    value {
      type: DT_INT32
    }
  }
  attr {
    key: "value"
    value {
      tensor {
        dtype: DT_INT32
        tensor_shape {
          dim {
            size: 1
          }
        }
        int_val: 1
      }
    }
  }
}
node {
  name: "v/tower_0/synthetic_labels/min"
  op: "Const"
  device: "/device:GPU:0"
  attr {
    key: "dtype"
    value {
      type: DT_INT32
    }
  }
  attr {
    key: "value"
    value {
      tensor {
        dtype: DT_INT32
        tensor_shape {
        }
        int_val: 0
      }
    }
  }
}
node {
  name: "v/tower_0/synthetic_labels/max"
  op: "Const"
  device: "/device:GPU:0"
  attr {
    key: "dtype"
    value {
      type: DT_INT32
    }
  }
  attr {
    key: "value"
    value {
      tensor {
        dtype: DT_INT32
        tensor_shape {
        }
        int_val: 1000
      }
    }
  }
}
node {
  name: "v/tower_0/synthetic_labels"
  op: "RandomUniformInt"
  input: "v/tower_0/synthetic_labels/shape"
  input: "v/tower_0/synthetic_labels/min"
  input: "v/tower_0/synthetic_labels/max"
  device: "/device:GPU:0"
  attr {
    key: "T"
    value {
      type: DT_INT32
    }
  }
  attr {
    key: "Tout"
    value {
      type: DT_INT32
    }
  }
  attr {
    key: "seed"
    value {
      i: 1234
    }
  }
  attr {
    key: "seed2"
    value {
      i: 34
    }
  }
}
node {
  name: "v/tower_0/transpose/perm"
  op: "Const"
  device: "/job:localhost/replica:0/task:0/device:NGRAPH:0"
  attr {
    key: "dtype"
    value {
      type: DT_INT32
    }
  }
  attr {
    key: "value"
    value {
      tensor {
        dtype: DT_INT32
        tensor_shape {
          dim {
            size: 4
          }
        }
        tensor_content: "\000\000\000\000\003\000\000\000\001\000\000\000\002\000\000\000"
      }
    }
  }
}
node {
  name: "v/tower_0/transpose"
  op: "Transpose"
  input: "v/tower_0/gpu_cached_images/read"
  input: "v/tower_0/transpose/perm"
  device: "/job:localhost/replica:0/task:0/device:NGRAPH:0"
  attr {
    key: "T"
    value {
      type: DT_FLOAT
    }
  }
  attr {
    key: "Tperm"
    value {
      type: DT_INT32
    }
  }
}
node {
  name: "v/tower_0/cg/conv0/Pad/paddings"
  op: "Const"
  device: "/job:localhost/replica:0/task:0/device:NGRAPH:0"
  attr {
    key: "dtype"
    value {
      type: DT_INT32
    }
  }
  attr {
    key: "value"
    value {
      tensor {
        dtype: DT_INT32
        tensor_shape {
          dim {
            size: 4
          }
          dim {
            size: 2
          }
        }
        tensor_content: "…"
      }
    }
  }
}
node {
  name: "v/tower_0/cg/conv0/Pad"
  op: "Pad"
  input: "v/tower_0/transpose"
  input: "v/tower_0/cg/conv0/Pad/paddings"
  device: "/job:localhost/replica:0/task:0/device:NGRAPH:0"
  attr {
    key: "T"
    value {
      type: DT_FLOAT
    }
  }
  attr {
    key: "Tpaddings"
    value {
      type: DT_INT32
    }
  }
}
node {
  name: "v/cg/conv0/conv2d/kernel/Initializer/random_uniform/shape"
  op: "Const"
  attr {
    key: "_class"
    value {
      list {
        s: "loc:@v/cg/conv0/conv2d/kernel"
      }
    }
  }
  attr {
    key: "dtype"
    value {
      type: DT_INT32
    }
  }
  attr {
    key: "value"
    value {
      tensor {
        dtype: DT_INT32
        tensor_shape {
          dim {
            size: 4
          }
        }
        tensor_content: "\007\000\000\000\007\000\000\000\003\000\000\000@\000\000\000"
      }
    }
  }
}
node {
  name: "v/cg/conv0/conv2d/kernel/Initializer/random_uniform/min"
  op: "Const"
  attr {
    key: "_class"
    value {
      list {
        s: "loc:@v/cg/conv0/conv2d/kernel"
      }
    }
  }
  attr {
    key: "dtype"
    value {
      type: DT_FLOAT
    }
  }
  attr {
    key: "value"
    value {
      tensor {
        dtype: DT_FLOAT
        tensor_shape {
        }
        float_val: -0.0427503995597
      }
    }
  }
}
node {
  name: "v/cg/conv0/conv2d/kernel/Initializer/random_uniform/max"
  op: "Const"
  attr {
    key: "_class"
    value {
      list {
        s: "loc:@v/cg/conv0/conv2d/kernel"
      }
    }
  }
  attr {
    key: "dtype"
    value {
      type: DT_FLOAT
    }
  }
  attr {
    key: "value"
    value {
      tensor {
        dtype: DT_FLOAT
        tensor_shape {
        }
        float_val: 0.0427503995597
      }
    }
  }
}
node {
  name: "v/cg/conv0/conv2d/kernel/Initializer/random_uniform/RandomUniform"
  op: "RandomUniform"
  input: "v/cg/conv0/conv2d/kernel/Initializer/random_uniform/shape"
  attr {
    key: "T"
    value {
      type: DT_INT32
    }
  }
  attr {
    key: "_class"
    value {
      list {
        s: "loc:@v/cg/conv0/conv2d/kernel"
      }
    }
  }
  attr {
    key: "dtype"
    value {
      type: DT_FLOAT
    }
  }
  attr {
    key: "seed"
    value {
      i: 1234
    }
  }
  attr {
    key: "seed2"
    value {
      i: 42
    }
  }
}
node {
  name: "v/cg/conv0/conv2d/kernel/Initializer/random_uniform/sub"
  op: "Sub"
  input: "v/cg/conv0/conv2d/kernel/Initializer/random_uniform/max"
  input: "v/cg/conv0/conv2d/kernel/Initializer/random_uniform/min"
  attr {
    key: "T"
    value {
      type: DT_FLOAT
    }
  }
  attr {
    key: "_class"
    value {
      list {
        s: "loc:@v/cg/conv0/conv2d/kernel"
      }
    }
  }
}
node {
  name: "v/cg/conv0/conv2d/kernel/Initializer/random_uniform/mul"
  op: "Mul"
  input: "v/cg/conv0/conv2d/kernel/Initializer/random_uniform/RandomUniform"
  input: "v/cg/conv0/conv2d/kernel/Initializer/random_uniform/sub"
  attr {
    key: "T"
    value {
      type: DT_FLOAT
    }
  }
  attr {
    key: "_class"
    value {
      list {
        s: "loc:@v/cg/conv0/conv2d/kernel"
      }
    }
  }
}
node {
  name: "v/cg/conv0/conv2d/kernel/Initializer/random_uniform"
  op: "Add"
  input: "v/cg/conv0/conv2d/kernel/Initializer/random_uniform/mul"
  input: "v/cg/conv0/conv2d/kernel/Initializer/random_uniform/min"
  attr {
    key: "T"
    value {
      type: DT_FLOAT
    }
  }
  attr {
    key: "_class"
    value {
      list {
        s: "loc:@v/cg/conv0/conv2d/kernel"
      }
    }
  }
}
node {
  name: "v/cg/conv0/conv2d/kernel"
  op: "VariableV2"
  device: "/job:localhost/replica:0/task:0/device:NGRAPH:0"
  attr {
    key: "_class"
    value {
      list {
        s: "loc:@v/cg/conv0/conv2d/kernel"
      }
    }
  }
  attr {
    key: "container"
    value {
      s: ""
    }
  }
  attr {
    key: "dtype"
    value {
      type: DT_FLOAT
    }
  }
  attr {
    key: "shape"
    value {
      shape {
        dim {
          size: 7
        }
        dim {
          size: 7
        }
        dim {
          size: 3
        }
        dim {
          size: 64
        }
      }
    }
  }
  attr {
    key: "shared_name"
    value {
      s: ""
    }
  }
}
node {
  name: "v/cg/conv0/conv2d/kernel/Assign"
  op: "Assign"
  input: "v/cg/conv0/conv2d/kernel"
  input: "v/cg/conv0/conv2d/kernel/Initializer/random_uniform"
  device: "/job:localhost/replica:0/task:0/device:NGRAPH:0"
  attr {
    key: "T"
    value {
      type: DT_FLOAT
    }
  }
  attr {
    key: "_class"
    value {
      list {
        s: "loc:@v/cg/conv0/conv2d/kernel"
      }
    }
  }
  attr {
    key: "use_locking"
    value {
      b: true
    }
  }
  attr {
    key: "validate_shape"
    value {
      b: true
    }
  }
}
node {
  name: "v/cg/conv0/conv2d/kernel/read"
  op: "Identity"
  input: "v/cg/conv0/conv2d/kernel"
  device: "/job:localhost/replica:0/task:0/device:NGRAPH:0"
  attr {
    key: "T"
    value {
      type: DT_FLOAT
    }
  }
  attr {
    key: "_class"
    value {
      list {
        s: "loc:@v/cg/conv0/conv2d/kernel"
      }
    }
  }
}
node {
  name: "v/tower_0/cg/conv0/conv2d/dilation_rate"
  op: "Const"
  device: "/job:localhost/replica:0/task:0/device:NGRAPH:0"
  attr {
    key: "dtype"
    value {
      type: DT_INT32
    }
  }
  attr {
    key: "value"
    value {
      tensor {
        dtype: DT_INT32
        tensor_shape {
          dim {
            size: 2
          }
        }
        tensor_content: "\001\000\000\000\001\000\000\000"
      }
    }
  }
}
node {
  name: "v/tower_0/cg/conv0/conv2d/Conv2D"
  op: "Conv2D"
  input: "v/tower_0/cg/conv0/Pad"
  input: "v/cg/conv0/conv2d/kernel/read"
  device: "/job:localhost/replica:0/task:0/device:NGRAPH:0"
  attr {
    key: "T"
    value {
      type: DT_FLOAT
    }
  }
  attr {
    key: "data_format"
    value {
      s: "NCHW"
    }
  }
  attr {
    key: "dilations"
    value {
      list {
        i: 1
        i: 1
        i: 1
        i: 1
      }
    }
  }
  attr {
    key: "padding"
    value {
      s: "VALID"
    }
  }
  attr {
    key: "strides"
    value {
      list {
        i: 1
        i: 1
        i: 2
        i: 2
      }
    }
  }
  attr {
    key: "use_cudnn_on_gpu"
    value {
      b: true
    }
  }
}
node {
  name: "v/cg/conv0/batchnorm0/gamma/Initializer/ones"
  op: "Const"
  attr {
    key: "_class"
    value {
      list {
        s: "loc:@v/cg/conv0/batchnorm0/gamma"
      }
    }
  }
  attr {
    key: "dtype"
    value {
      type: DT_FLOAT
    }
  }
  attr {
    key: "value"
    value {
      tensor {
        dtype: DT_FLOAT
        tensor_shape {
          dim {
            size: 64
          }
        }
        float_val: 1.0
      }
    }
  }
}
node {
  name: "v/cg/conv0/batchnorm0/gamma"
  op: "VariableV2"
  device: "/job:localhost/replica:0/task:0/device:NGRAPH:0"
  attr {
    key: "_class"
    value {
      list {
        s: "loc:@v/cg/conv0/batchnorm0/gamma"
      }
    }
  }
  attr {
    key: "container"
    value {
      s: ""
    }
  }
  attr {
    key: "dtype"
    value {
      type: DT_FLOAT
    }
  }
  attr {
    key: "shape"
    value {
      shape {
        dim {
          size: 64
        }
      }
    }
  }
  attr {
    key: "shared_name"
    value {
      s: ""
    }
  }
}
node {
  name: "v/cg/conv0/batchnorm0/gamma/Assign"
  op: "Assign"
  input: "v/cg/conv0/batchnorm0/gamma"
  input: "v/cg/conv0/batchnorm0/gamma/Initializer/ones"
  device: "/job:localhost/replica:0/task:0/device:NGRAPH:0"
  attr {
    key: "T"
    value {
      type: DT_FLOAT
    }
  }
  attr {
    key: "_class"
    value {
      list {
        s: "loc:@v/cg/conv0/batchnorm0/gamma"
      }
    }
  }
  attr {
    key: "use_locking"
    value {
      b: true
    }
  }
  attr {
    key: "validate_shape"
    value {
      b: true
    }
  }
}
node {
  name: "v/cg/conv0/batchnorm0/gamma/read"
  op: "Identity"
  input: "v/cg/conv0/batchnorm0/gamma"
  device: "/job:localhost/replica:0/task:0/device:NGRAPH:0"
  attr {
    key: "T"
    value {
      type: DT_FLOAT
    }
  }
  attr {
    key: "_class"
    value {
      list {
        s: "loc:@v/cg/conv0/batchnorm0/gamma"
      }
    }
  }
}
node {
  name: "v/cg/conv0/batchnorm0/beta/Initializer/zeros"
  op: "Const"
  attr {
    key: "_class"
    value {
      list {
        s: "loc:@v/cg/conv0/batchnorm0/beta"
      }
    }
  }
  attr {
    key: "dtype"
    value {
      type: DT_FLOAT
    }
  }
  attr {
    key: "value"
    value {
      tensor {
        dtype: DT_FLOAT
        tensor_shape {
          dim {
            size: 64
          }
        }
        float_val: 0.0
      }
    }
  }
}
node {
  name: "v/cg/conv0/batchnorm0/beta"
  op: "VariableV2"
  device: "/job:localhost/replica:0/task:0/device:NGRAPH:0"
  attr {
    key: "_class"
    value {
      list {
        s: "loc:@v/cg/conv0/batchnorm0/beta"
      }
    }
  }
  attr {
    key: "container"
    value {
      s: ""
    }
  }
  attr {
    key: "dtype"
    value {
      type: DT_FLOAT
    }
  }
  attr {
    key: "shape"
    value {
      shape {
        dim {
          size: 64
        }
      }
    }
  }
  attr {
    key: "shared_name"
    value {
      s: ""
    }
  }
}
node {
  name: "v/cg/conv0/batchnorm0/beta/Assign"
  op: "Assign"
  input: "v/cg/conv0/batchnorm0/beta"
  input: "v/cg/conv0/batchnorm0/beta/Initializer/zeros"
  device: "/job:localhost/replica:0/task:0/device:NGRAPH:0"
  attr {
    key: "T"
    value {
      type: DT_FLOAT
    }
  }
  attr {
    key: "_class"
    value {
      list {
        s: "loc:@v/cg/conv0/batchnorm0/beta"
      }
    }
  }
  attr {
    key: "use_locking"
    value {
      b: true
    }
  }
  attr {
    key: "validate_shape"
    value {
      b: true
    }
  }
}
node {
  name: "v/cg/conv0/batchnorm0/beta/read"
  op: "Identity"
  input: "v/cg/conv0/batchnorm0/beta"
  device: "/job:localhost/replica:0/task:0/device:NGRAPH:0"
  attr {
    key: "T"
    value {
      type: DT_FLOAT
    }
  }
  attr {
    key: "_class"
    value {
      list {
        s: "loc:@v/cg/conv0/batchnorm0/beta"
      }
    }
  }
}
node {
  name: "v/cg/conv0/batchnorm0/moving_mean/Initializer/zeros"
  op: "Const"
  attr {
    key: "_class"
    value {
      list {
        s: "loc:@v/cg/conv0/batchnorm0/moving_mean"
      }
    }
  }
  attr {
    key: "dtype"
    value {
      type: DT_FLOAT
    }
  }
  attr {
    key: "value"
    value {
      tensor {
        dtype: DT_FLOAT
        tensor_shape {
          dim {
            size: 64
          }
        }
        float_val: 0.0
      }
    }
  }
}
node {
  name: "v/cg/conv0/batchnorm0/moving_mean"
  op: "VariableV2"
  device: "/job:localhost/replica:0/task:0/device:NGRAPH:0"
  attr {
    key: "_class"
    value {
      list {
        s: "loc:@v/cg/conv0/batchnorm0/moving_mean"
      }
    }
  }
  attr {
    key: "container"
    value {
      s: ""
    }
  }
  attr {
    key: "dtype"
    value {
      type: DT_FLOAT
    }
  }
  attr {
    key: "shape"
    value {
      shape {
        dim {
          size: 64
        }
      }
    }
  }
  attr {
    key: "shared_name"
    value {
      s: ""
    }
  }
}
node {
  name: "v/cg/conv0/batchnorm0/moving_mean/Assign"
  op: "Assign"
  input: "v/cg/conv0/batchnorm0/moving_mean"
  input: "v/cg/conv0/batchnorm0/moving_mean/Initializer/zeros"
  device: "/job:localhost/replica:0/task:0/device:NGRAPH:0"
  attr {
    key: "T"
    value {
      type: DT_FLOAT
    }
  }
  attr {
    key: "_class"
    value {
      list {
        s: "loc:@v/cg/conv0/batchnorm0/moving_mean"
      }
    }
  }
  attr {
    key: "use_locking"
    value {
      b: true
    }
  }
  attr {
    key: "validate_shape"
    value {
      b: true
    }
  }
}
node {
  name: "v/cg/conv0/batchnorm0/moving_mean/read"
  op: "Identity"
  input: "v/cg/conv0/batchnorm0/moving_mean"
  device: "/job:localhost/replica:0/task:0/device:NGRAPH:0"
  attr {
    key: "T"
    value {
      type: DT_FLOAT
    }
  }
  attr {
    key: "_class"
    value {
      list {
        s: "loc:@v/cg/conv0/batchnorm0/moving_mean"
      }
    }
  }
}
node {
  name: "v/cg/conv0/batchnorm0/moving_variance/Initializer/ones"
  op: "Const"
  attr {
    key: "_class"
    value {
      list {
        s: "loc:@v/cg/conv0/batchnorm0/moving_variance"
      }
    }
  }
  attr {
    key: "dtype"
    value {
      type: DT_FLOAT
    }
  }
  attr {
    key: "value"
    value {
      tensor {
        dtype: DT_FLOAT
        tensor_shape {
          dim {
            size: 64
          }
        }
        float_val: 1.0
      }
    }
  }
}
node {
  name: "v/cg/conv0/batchnorm0/moving_variance"
  op: "VariableV2"
  device: "/job:localhost/replica:0/task:0/device:NGRAPH:0"
  attr {
    key: "_class"
    value {
      list {
        s: "loc:@v/cg/conv0/batchnorm0/moving_variance"
      }
    }
  }
  attr {
    key: "container"
    value {
      s: ""
    }
  }
  attr {
    key: "dtype"
    value {
      type: DT_FLOAT
    }
  }
  attr {
    key: "shape"
    value {
      shape {
        dim {
          size: 64
        }
      }
    }
  }
  attr {
    key: "shared_name"
    value {
      s: ""
    }
  }
}
node {
  name: "v/cg/conv0/batchnorm0/moving_variance/Assign"
  op: "Assign"
  input: "v/cg/conv0/batchnorm0/moving_variance"
  input: "v/cg/conv0/batchnorm0/moving_variance/Initializer/ones"
  device: "/job:localhost/replica:0/task:0/device:NGRAPH:0"
  attr {
    key: "T"
    value {
      type: DT_FLOAT
    }
  }
  attr {
    key: "_class"
    value {
      list {
        s: "loc:@v/cg/conv0/batchnorm0/moving_variance"
      }
    }
  }
  attr {
    key: "use_locking"
    value {
      b: true
    }
  }
  attr {
    key: "validate_shape"
    value {
      b: true
    }
  }
}
node {
  name: "v/cg/conv0/batchnorm0/moving_variance/read"
  op: "Identity"
  input: "v/cg/conv0/batchnorm0/moving_variance"
  device: "/job:localhost/replica:0/task:0/device:NGRAPH:0"
  attr {
    key: "T"
    value {
      type: DT_FLOAT
    }
  }
  attr {
    key: "_class"
    value {
      list {
        s: "loc:@v/cg/conv0/batchnorm0/moving_variance"
      }
    }
  }
}
node {
  name: "v/tower_0/cg/conv0/batchnorm0/FusedBatchNorm"
  op: "FusedBatchNorm"
  input: "v/tower_0/cg/conv0/conv2d/Conv2D"
  input: "v/cg/conv0/batchnorm0/gamma/read"
  input: "v/cg/conv0/batchnorm0/beta/read"
  input: "v/cg/conv0/batchnorm0/moving_mean/read"
  input: "v/cg/conv0/batchnorm0/moving_variance/read"
  device: "/job:localhost/replica:0/task:0/device:NGRAPH:0"
  attr {
    key: "T"
    value {
      type: DT_FLOAT
    }
  }
  attr {
    key: "data_format"
    value {
      s: "NCHW"
    }
  }
  attr {
    key: "epsilon"
    value {
      f: 1.00099996416e-05
    }
  }
  attr {
    key: "is_training"
    value {
      b: false
    }
  }
}
node {
  name: "v/tower_0/cg/conv0/batchnorm0/Const"
  op: "Const"
  device: "/job:localhost/replica:0/task:0/device:NGRAPH:0"
  attr {
    key: "dtype"
    value {
      type: DT_FLOAT
    }
  }
  attr {
    key: "value"
    value {
      tensor {
        dtype: DT_FLOAT
        tensor_shape {
        }
        float_val: 0.899999976158
      }
    }
  }
}
node {
  name: "v/tower_0/cg/conv0/Relu"
  op: "Relu"
  input: "v/tower_0/cg/conv0/batchnorm0/FusedBatchNorm"
  device: "/job:localhost/replica:0/task:0/device:NGRAPH:0"
  attr {
    key: "T"
    value {
      type: DT_FLOAT
    }
  }
}
node {
  name: "v/tower_0/cg/mpool0/MaxPool"
  op: "MaxPool"
  input: "v/tower_0/cg/conv0/Relu"
  device: "/job:localhost/replica:0/task:0/device:NGRAPH:0"
  attr {
    key: "T"
    value {
      type: DT_FLOAT
    }
  }
  attr {
    key: "data_format"
    value {
      s: "NCHW"
    }
  }
  attr {
    key: "ksize"
    value {
      list {
        i: 1
        i: 1
        i: 3
        i: 3
      }
    }
  }
  attr {
    key: "padding"
    value {
      s: "SAME"
    }
  }
  attr {
    key: "strides"
    value {
      list {
        i: 1
        i: 1
        i: 2
        i: 2
      }
    }
  }
}
node {
  name: "v/cg/resnet_v10/conv1/conv2d/kernel/Initializer/random_uniform/shape"
  op: "Const"
  attr {
    key: "_class"
    value {
      list {
        s: "loc:@v/cg/resnet_v10/conv1/conv2d/kernel"
      }
    }
  }
  attr {
    key: "dtype"
    value {
      type: DT_INT32
    }
  }
  attr {
    key: "value"
    value {
      tensor {
        dtype: DT_INT32
        tensor_shape {
          dim {
            size: 4
          }
        }
        tensor_content: "\001\000\000\000\001\000\000\000@\000\000\000\000\001\000\000"
      }
    }
  }
}
node {
  name: "v/cg/resnet_v10/conv1/conv2d/kernel/Initializer/random_uniform/min"
  op: "Const"
  attr {
    key: "_class"
    value {
      list {
        s: "loc:@v/cg/resnet_v10/conv1/conv2d/kernel"
      }
    }
  }
  attr {
    key: "dtype"
    value {
      type: DT_FLOAT
    }
  }
  attr {
    key: "value"
    value {
      tensor {
        dtype: DT_FLOAT
        tensor_shape {
        }
        float_val: -0.136930644512
      }
    }
  }
}
node {
  name: "v/cg/resnet_v10/conv1/conv2d/kernel/Initializer/random_uniform/max"
  op: "Const"
  attr {
    key: "_class"
    value {
      list {
        s: "loc:@v/cg/resnet_v10/conv1/conv2d/kernel"
      }
    }
  }
  attr {
    key: "dtype"
    value {
      type: DT_FLOAT
    }
  }
  attr {
    key: "value"
    value {
      tensor {
        dtype: DT_FLOAT
        tensor_shape {
        }
        float_val: 0.136930644512
      }
    }
  }
}
node {
  name: "v/cg/resnet_v10/conv1/conv2d/kernel/Initializer/random_uniform/RandomUniform"
  op: "RandomUniform"
  input: "v/cg/resnet_v10/conv1/conv2d/kernel/Initializer/random_uniform/shape"
  attr {
    key: "T"
    value {
      type: DT_INT32
    }
  }
  attr {
    key: "_class"
    value {
      list {
        s: "loc:@v/cg/resnet_v10/conv1/conv2d/kernel"
      }
    }
  }
  attr {
    key: "dtype"
    value {
      type: DT_FLOAT
    }
  }
  attr {
    key: "seed"
    value {
      i: 1234
    }
  }
  attr {
    key: "seed2"
    value {
      i: 74
    }
  }
}
node {
  name: "v/cg/resnet_v10/conv1/conv2d/kernel/Initializer/random_uniform/sub"
  op: "Sub"
  input: "v/cg/resnet_v10/conv1/conv2d/kernel/Initializer/random_uniform/max"
  input: "v/cg/resnet_v10/conv1/conv2d/kernel/Initializer/random_uniform/min"
  attr {
    key: "T"
    value {
      type: DT_FLOAT
    }
  }
  attr {
    key: "_class"
    value {
      list {
        s: "loc:@v/cg/resnet_v10/conv1/conv2d/kernel"
      }
    }
  }
}
node {
  name: "v/cg/resnet_v10/conv1/conv2d/kernel/Initializer/random_uniform/mul"
  op: "Mul"
  input: "v/cg/resnet_v10/conv1/conv2d/kernel/Initializer/random_uniform/RandomUniform"
  input: "v/cg/resnet_v10/conv1/conv2d/kernel/Initializer/random_uniform/sub"
  attr {
    key: "T"
    value {
      type: DT_FLOAT
    }
  }
  attr {
    key: "_class"
    value {
      list {
        s: "loc:@v/cg/resnet_v10/conv1/conv2d/kernel"
      }
    }
  }
}
node {
  name: "v/cg/resnet_v10/conv1/conv2d/kernel/Initializer/random_uniform"
  op: "Add"
  input: "v/cg/resnet_v10/conv1/conv2d/kernel/Initializer/random_uniform/mul"
  input: "v/cg/resnet_v10/conv1/conv2d/kernel/Initializer/random_uniform/min"
  attr {
    key: "T"
    value {
      type: DT_FLOAT
    }
  }
  attr {
    key: "_class"
    value {
      list {
        s: "loc:@v/cg/resnet_v10/conv1/conv2d/kernel"
      }
    }
  }
}
node {
  name: "v/cg/resnet_v10/conv1/conv2d/kernel"
  op: "VariableV2"
  device: "/job:localhost/replica:0/task:0/device:NGRAPH:0"
  attr {
    key: "_class"
    value {
      list {
        s: "loc:@v/cg/resnet_v10/conv1/conv2d/kernel"
      }
    }
  }
  attr {
    key: "container"
    value {
      s: ""
    }
  }
  attr {
    key: "dtype"
    value {
      type: DT_FLOAT
    }
  }
  attr {
    key: "shape"
    value {
      shape {
        dim {
          size: 1
        }
        dim {
          size: 1
        }
        dim {
          size: 64
        }
        dim {
          size: 256
        }
      }
    }
  }
  attr {
    key: "shared_name"
    value {
      s: ""
    }
  }
}
node {
  name: "v/cg/resnet_v10/conv1/conv2d/kernel/Assign"
  op: "Assign"
  input: "v/cg/resnet_v10/conv1/conv2d/kernel"
  input: "v/cg/resnet_v10/conv1/conv2d/kernel/Initializer/random_uniform"
  device: "/job:localhost/replica:0/task:0/device:NGRAPH:0"
  attr {
    key: "T"
    value {
      type: DT_FLOAT
    }
  }
  attr {
    key: "_class"
    value {
      list {
        s: "loc:@v/cg/resnet_v10/conv1/conv2d/kernel"
      }
    }
  }
  attr {
    key: "use_locking"
    value {
      b: true
    }
  }
  attr {
    key: "validate_shape"
    value {
      b: true
    }
  }
}
node {
  name: "v/cg/resnet_v10/conv1/conv2d/kernel/read"
  op: "Identity"
  input: "v/cg/resnet_v10/conv1/conv2d/kernel"
  device: "/job:localhost/replica:0/task:0/device:NGRAPH:0"
  attr {
    key: "T"
    value {
      type: DT_FLOAT
    }
  }
  attr {
    key: "_class"
    value {
      list {
        s: "loc:@v/cg/resnet_v10/conv1/conv2d/kernel"
      }
    }
  }
}
node {
  name: "v/tower_0/cg/resnet_v10/conv1/conv2d/dilation_rate"
  op: "Const"
  device: "/job:localhost/replica:0/task:0/device:NGRAPH:0"
  attr {
    key: "dtype"
    value {
      type: DT_INT32
    }
  }
  attr {
    key: "value"
    value {
      tensor {
        dtype: DT_INT32
        tensor_shape {
          dim {
            size: 2
          }
        }
        tensor_content: "\001\000\000\000\001\000\000\000"
      }
    }
  }
}
node {
  name: "v/tower_0/cg/resnet_v10/conv1/conv2d/Conv2D"
  op: "Conv2D"
  input: "v/tower_0/cg/mpool0/MaxPool"
  input: "v/cg/resnet_v10/conv1/conv2d/kernel/read"
  device: "/job:localhost/replica:0/task:0/device:NGRAPH:0"
  attr {
    key: "T"
    value {
      type: DT_FLOAT
    }
  }
  attr {
    key: "data_format"
    value {
      s: "NCHW"
    }
  }
  attr {
    key: "dilations"
    value {
      list {
        i: 1
        i: 1
        i: 1
        i: 1
      }
    }
  }
  attr {
    key: "padding"
    value {
      s: "SAME"
    }
  }
  attr {
    key: "strides"
    value {
      list {
        i: 1
        i: 1
        i: 1
        i: 1
      }
    }
  }
  attr {
    key: "use_cudnn_on_gpu"
    value {
      b: true
    }
  }
}
node {
  name: "v/cg/resnet_v10/conv1/batchnorm1/gamma/Initializer/ones"
  op: "Const"
  attr {
    key: "_class"
    value {
      list {
        s: "loc:@v/cg/resnet_v10/conv1/batchnorm1/gamma"
      }
    }
  }
  attr {
    key: "dtype"
    value {
      type: DT_FLOAT
    }
  }
  attr {
    key: "value"
    value {
      tensor {
        dtype: DT_FLOAT
        tensor_shape {
          dim {
            size: 256
          }
        }
        float_val: 1.0
      }
    }
  }
}
node {
  name: "v/cg/resnet_v10/conv1/batchnorm1/gamma"
  op: "VariableV2"
  device: "/job:localhost/replica:0/task:0/device:NGRAPH:0"
  attr {
    key: "_class"
    value {
      list {
        s: "loc:@v/cg/resnet_v10/conv1/batchnorm1/gamma"
      }
    }
  }
  attr {
    key: "container"
    value {
      s: ""
    }
  }
  attr {
    key: "dtype"
    value {
      type: DT_FLOAT
    }
  }
  attr {
    key: "shape"
    value {
      shape {
        dim {
          size: 256
        }
      }
    }
  }
  attr {
    key: "shared_name"
    value {
      s: ""
    }
  }
}
node {
  name: "v/cg/resnet_v10/conv1/batchnorm1/gamma/Assign"
  op: "Assign"
  input: "v/cg/resnet_v10/conv1/batchnorm1/gamma"
  input: "v/cg/resnet_v10/conv1/batchnorm1/gamma/Initializer/ones"
  device: "/job:localhost/replica:0/task:0/device:NGRAPH:0"
  attr {
    key: "T"
    value {
      type: DT_FLOAT
    }
  }
  attr {
    key: "_class"
    value {
      list {
        s: "loc:@v/cg/resnet_v10/conv1/batchnorm1/gamma"
      }
    }
  }
  attr {
    key: "use_locking"
    value {
      b: true
    }
  }
  attr {
    key: "validate_shape"
    value {
      b: true
    }
  }
}
node {
  name: "v/cg/resnet_v10/conv1/batchnorm1/gamma/read"
  op: "Identity"
  input: "v/cg/resnet_v10/conv1/batchnorm1/gamma"
  device: "/job:localhost/replica:0/task:0/device:NGRAPH:0"
  attr {
    key: "T"
    value {
      type: DT_FLOAT
    }
  }
  attr {
    key: "_class"
    value {
      list {
        s: "loc:@v/cg/resnet_v10/conv1/batchnorm1/gamma"
      }
    }
  }
}
node {
  name: "v/cg/resnet_v10/conv1/batchnorm1/beta/Initializer/zeros"
  op: "Const"
  attr {
    key: "_class"
    value {
      list {
        s: "loc:@v/cg/resnet_v10/conv1/batchnorm1/beta"
      }
    }
  }
  attr {
    key: "dtype"
    value {
      type: DT_FLOAT
    }
  }
  attr {
    key: "value"
    value {
      tensor {
        dtype: DT_FLOAT
        tensor_shape {
          dim {
            size: 256
          }
        }
        float_val: 0.0
      }
    }
  }
}
node {
  name: "v/cg/resnet_v10/conv1/batchnorm1/beta"
  op: "VariableV2"
  device: "/job:localhost/replica:0/task:0/device:NGRAPH:0"
  attr {
    key: "_class"
    value {
      list {
        s: "loc:@v/cg/resnet_v10/conv1/batchnorm1/beta"
      }
    }
  }
  attr {
    key: "container"
    value {
      s: ""
    }
  }
  attr {
    key: "dtype"
    value {
      type: DT_FLOAT
    }
  }
  attr {
    key: "shape"
    value {
      shape {
        dim {
          size: 256
        }
      }
    }
  }
  attr {
    key: "shared_name"
    value {
      s: ""
    }
  }
}
node {
  name: "v/cg/resnet_v10/conv1/batchnorm1/beta/Assign"
  op: "Assign"
  input: "v/cg/resnet_v10/conv1/batchnorm1/beta"
  input: "v/cg/resnet_v10/conv1/batchnorm1/beta/Initializer/zeros"
  device: "/job:localhost/replica:0/task:0/device:NGRAPH:0"
  attr {
    key: "T"
    value {
      type: DT_FLOAT
    }
  }
  attr {
    key: "_class"
    value {
      list {
        s: "loc:@v/cg/resnet_v10/conv1/batchnorm1/beta"
      }
    }
  }
  attr {
    key: "use_locking"
    value {
      b: true
    }
  }
  attr {
    key: "validate_shape"
    value {
      b: true
    }
  }
}
node {
  name: "v/cg/resnet_v10/conv1/batchnorm1/beta/read"
  op: "Identity"
  input: "v/cg/resnet_v10/conv1/batchnorm1/beta"
  device: "/job:localhost/replica:0/task:0/device:NGRAPH:0"
  attr {
    key: "T"
    value {
      type: DT_FLOAT
    }
  }
  attr {
    key: "_class"
    value {
      list {
        s: "loc:@v/cg/resnet_v10/conv1/batchnorm1/beta"
      }
    }
  }
}
node {
  name: "v/cg/resnet_v10/conv1/batchnorm1/moving_mean/Initializer/zeros"
  op: "Const"
  attr {
    key: "_class"
    value {
      list {
        s: "loc:@v/cg/resnet_v10/conv1/batchnorm1/moving_mean"
      }
    }
  }
  attr {
    key: "dtype"
    value {
      type: DT_FLOAT
    }
  }
  attr {
    key: "value"
    value {
      tensor {
        dtype: DT_FLOAT
        tensor_shape {
          dim {
            size: 256
          }
        }
        float_val: 0.0
      }
    }
  }
}
node {
  name: "v/cg/resnet_v10/conv1/batchnorm1/moving_mean"
  op: "VariableV2"
  device: "/job:localhost/replica:0/task:0/device:NGRAPH:0"
  attr {
    key: "_class"
    value {
      list {
        s: "loc:@v/cg/resnet_v10/conv1/batchnorm1/moving_mean"
      }
    }
  }
  attr {
    key: "container"
    value {
      s: ""
    }
  }
  attr {
    key: "dtype"
    value {
      type: DT_FLOAT
    }
  }
  attr {
    key: "shape"
    value {
      shape {
        dim {
          size: 256
        }
      }
    }
  }
  attr {
    key: "shared_name"
    value {
      s: ""
    }
  }
}
node {
  name: "v/cg/resnet_v10/conv1/batchnorm1/moving_mean/Assign"
  op: "Assign"
  input: "v/cg/resnet_v10/conv1/batchnorm1/moving_mean"
  input: "v/cg/resnet_v10/conv1/batchnorm1/moving_mean/Initializer/zeros"
  device: "/job:localhost/replica:0/task:0/device:NGRAPH:0"
  attr {
    key: "T"
    value {
      type: DT_FLOAT
    }
  }
  attr {
    key: "_class"
    value {
      list {
        s: "loc:@v/cg/resnet_v10/conv1/batchnorm1/moving_mean"
      }
    }
  }
  attr {
    key: "use_locking"
    value {
      b: true
    }
  }
  attr {
    key: "validate_shape"
    value {
      b: true
    }
  }
}
node {
  name: "v/cg/resnet_v10/conv1/batchnorm1/moving_mean/read"
  op: "Identity"
  input: "v/cg/resnet_v10/conv1/batchnorm1/moving_mean"
  device: "/job:localhost/replica:0/task:0/device:NGRAPH:0"
  attr {
    key: "T"
    value {
      type: DT_FLOAT
    }
  }
  attr {
    key: "_class"
    value {
      list {
        s: "loc:@v/cg/resnet_v10/conv1/batchnorm1/moving_mean"
      }
    }
  }
}
node {
  name: "v/cg/resnet_v10/conv1/batchnorm1/moving_variance/Initializer/ones"
  op: "Const"
  attr {
    key: "_class"
    value {
      list {
        s: "loc:@v/cg/resnet_v10/conv1/batchnorm1/moving_variance"
      }
    }
  }
  attr {
    key: "dtype"
    value {
      type: DT_FLOAT
    }
  }
  attr {
    key: "value"
    value {
      tensor {
        dtype: DT_FLOAT
        tensor_shape {
          dim {
            size: 256
          }
        }
        float_val: 1.0
      }
    }
  }
}
node {
  name: "v/cg/resnet_v10/conv1/batchnorm1/moving_variance"
  op: "VariableV2"
  device: "/job:localhost/replica:0/task:0/device:NGRAPH:0"
  attr {
    key: "_class"
    value {
      list {
        s: "loc:@v/cg/resnet_v10/conv1/batchnorm1/moving_variance"
      }
    }
  }
  attr {
    key: "container"
    value {
      s: ""
    }
  }
  attr {
    key: "dtype"
    value {
      type: DT_FLOAT
    }
  }
  attr {
    key: "shape"
    value {
      shape {
        dim {
          size: 256
        }
      }
    }
  }
  attr {
    key: "shared_name"
    value {
      s: ""
    }
  }
}
node {
  name: "v/cg/resnet_v10/conv1/batchnorm1/moving_variance/Assign"
  op: "Assign"
  input: "v/cg/resnet_v10/conv1/batchnorm1/moving_variance"
  input: "v/cg/resnet_v10/conv1/batchnorm1/moving_variance/Initializer/ones"
  device: "/job:localhost/replica:0/task:0/device:NGRAPH:0"
  attr {
    key: "T"
    value {
      type: DT_FLOAT
    }
  }
  attr {
    key: "_class"
    value {
      list {
        s: "loc:@v/cg/resnet_v10/conv1/batchnorm1/moving_variance"
      }
    }
  }
  attr {
    key: "use_locking"
    value {
      b: true
    }
  }
  attr {
    key: "validate_shape"
    value {
      b: true
    }
  }
}
node {
  name: "v/cg/resnet_v10/conv1/batchnorm1/moving_variance/read"
  op: "Identity"
  input: "v/cg/resnet_v10/conv1/batchnorm1/moving_variance"
  device: "/job:localhost/replica:0/task:0/device:NGRAPH:0"
  attr {
    key: "T"
    value {
      type: DT_FLOAT
    }
  }
  attr {
    key: "_class"
    value {
      list {
        s: "loc:@v/cg/resnet_v10/conv1/batchnorm1/moving_variance"
      }
    }
  }
}
node {
  name: "v/tower_0/cg/resnet_v10/conv1/batchnorm1/FusedBatchNorm"
  op: "FusedBatchNorm"
  input: "v/tower_0/cg/resnet_v10/conv1/conv2d/Conv2D"
  input: "v/cg/resnet_v10/conv1/batchnorm1/gamma/read"
  input: "v/cg/resnet_v10/conv1/batchnorm1/beta/read"
  input: "v/cg/resnet_v10/conv1/batchnorm1/moving_mean/read"
  input: "v/cg/resnet_v10/conv1/batchnorm1/moving_variance/read"
  device: "/job:localhost/replica:0/task:0/device:NGRAPH:0"
  attr {
    key: "T"
    value {
      type: DT_FLOAT
    }
  }
  attr {
    key: "data_format"
    value {
      s: "NCHW"
    }
  }
  attr {
    key: "epsilon"
    value {
      f: 1.00099996416e-05
    }
  }
  attr {
    key: "is_training"
    value {
      b: false
    }
  }
}
node {
  name: "v/tower_0/cg/resnet_v10/conv1/batchnorm1/Const"
  op: "Const"
  device: "/job:localhost/replica:0/task:0/device:NGRAPH:0"
  attr {
    key: "dtype"
    value {
      type: DT_FLOAT
    }
  }
  attr {
    key: "value"
    value {
      tensor {
        dtype: DT_FLOAT
        tensor_shape {
        }
        float_val: 0.899999976158
      }
    }
  }
}
node {
  name: "v/cg/resnet_v10/conv2/conv2d/kernel/Initializer/random_uniform/shape"
  op: "Const"
  attr {
    key: "_class"
    value {
      list {
        s: "loc:@v/cg/resnet_v10/conv2/conv2d/kernel"
      }
    }
  }
  attr {
    key: "dtype"
    value {
      type: DT_INT32
    }
  }
  attr {
    key: "value"
    value {
      tensor {
        dtype: DT_INT32
        tensor_shape {
          dim {
            size: 4
          }
        }
        tensor_content: "\001\000\000\000\001\000\000\000@\000\000\000@\000\000\000"
      }
    }
  }
}
node {
  name: "v/cg/resnet_v10/conv2/conv2d/kernel/Initializer/random_uniform/min"
  op: "Const"
  attr {
    key: "_class"
    value {
      list {
        s: "loc:@v/cg/resnet_v10/conv2/conv2d/kernel"
      }
    }
  }
  attr {
    key: "dtype"
    value {
      type: DT_FLOAT
    }
  }
  attr {
    key: "value"
    value {
      tensor {
        dtype: DT_FLOAT
        tensor_shape {
        }
        float_val: -0.21650634706
      }
    }
  }
}
node {
  name: "v/cg/resnet_v10/conv2/conv2d/kernel/Initializer/random_uniform/max"
  op: "Const"
  attr {
    key: "_class"
    value {
      list {
        s: "loc:@v/cg/resnet_v10/conv2/conv2d/kernel"
      }
    }
  }
  attr {
    key: "dtype"
    value {
      type: DT_FLOAT
    }
  }
  attr {
    key: "value"
    value {
      tensor {
        dtype: DT_FLOAT
        tensor_shape {
        }
        float_val: 0.21650634706
      }
    }
  }
}
node {
  name: "v/cg/resnet_v10/conv2/conv2d/kernel/Initializer/random_uniform/RandomUniform"
  op: "RandomUniform"
  input: "v/cg/resnet_v10/conv2/conv2d/kernel/Initializer/random_uniform/shape"
  attr {
    key: "T"
    value {
      type: DT_INT32
    }
  }
  attr {
    key: "_class"
    value {
      list {
        s: "loc:@v/cg/resnet_v10/conv2/conv2d/kernel"
      }
    }
  }
  attr {
    key: "dtype"
    value {
      type: DT_FLOAT
    }
  }
  attr {
    key: "seed"
    value {
      i: 1234
    }
  }
  attr {
    key: "seed2"
    value {
      i: 104
    }
  }
}
node {
  name: "v/cg/resnet_v10/conv2/conv2d/kernel/Initializer/random_uniform/sub"
  op: "Sub"
  input: "v/cg/resnet_v10/conv2/conv2d/kernel/Initializer/random_uniform/max"
  input: "v/cg/resnet_v10/conv2/conv2d/kernel/Initializer/random_uniform/min"
  attr {
    key: "T"
    value {
      type: DT_FLOAT
    }
  }
  attr {
    key: "_class"
    value {
      list {
        s: "loc:@v/cg/resnet_v10/conv2/conv2d/kernel"
      }
    }
  }
}
node {
  name: "v/cg/resnet_v10/conv2/conv2d/kernel/Initializer/random_uniform/mul"
  op: "Mul"
  input: "v/cg/resnet_v10/conv2/conv2d/kernel/Initializer/random_uniform/RandomUniform"
  input: "v/cg/resnet_v10/conv2/conv2d/kernel/Initializer/random_uniform/sub"
  attr {
    key: "T"
    value {
      type: DT_FLOAT
    }
  }
  attr {
    key: "_class"
    value {
      list {
        s: "loc:@v/cg/resnet_v10/conv2/conv2d/kernel"
      }
    }
  }
}
node {
  name: "v/cg/resnet_v10/conv2/conv2d/kernel/Initializer/random_uniform"
  op: "Add"
  input: "v/cg/resnet_v10/conv2/conv2d/kernel/Initializer/random_uniform/mul"
  input: "v/cg/resnet_v10/conv2/conv2d/kernel/Initializer/random_uniform/min"
  attr {
    key: "T"
    value {
      type: DT_FLOAT
    }
  }
  attr {
    key: "_class"
    value {
      list {
        s: "loc:@v/cg/resnet_v10/conv2/conv2d/kernel"
      }
    }
  }
}
node {
  name: "v/cg/resnet_v10/conv2/conv2d/kernel"
  op: "VariableV2"
  device: "/job:localhost/replica:0/task:0/device:NGRAPH:0"
  attr {
    key: "_class"
    value {
      list {
        s: "loc:@v/cg/resnet_v10/conv2/conv2d/kernel"
      }
    }
  }
  attr {
    key: "container"
    value {
      s: ""
    }
  }
  attr {
    key: "dtype"
    value {
      type: DT_FLOAT
    }
  }
  attr {
    key: "shape"
    value {
      shape {
        dim {
          size: 1
        }
        dim {
          size: 1
        }
        dim {
          size: 64
        }
        dim {
          size: 64
        }
      }
    }
  }
  attr {
    key: "shared_name"
    value {
      s: ""
    }
  }
}
node {
  name: "v/cg/resnet_v10/conv2/conv2d/kernel/Assign"
  op: "Assign"
  input: "v/cg/resnet_v10/conv2/conv2d/kernel"
  input: "v/cg/resnet_v10/conv2/conv2d/kernel/Initializer/random_uniform"
  device: "/job:localhost/replica:0/task:0/device:NGRAPH:0"
  attr {
    key: "T"
    value {
      type: DT_FLOAT
    }
  }
  attr {
    key: "_class"
    value {
      list {
        s: "loc:@v/cg/resnet_v10/conv2/conv2d/kernel"
      }
    }
  }
  attr {
    key: "use_locking"
    value {
      b: true
    }
  }
  attr {
    key: "validate_shape"
    value {
      b: true
    }
  }
}
node {
  name: "v/cg/resnet_v10/conv2/conv2d/kernel/read"
  op: "Identity"
  input: "v/cg/resnet_v10/conv2/conv2d/kernel"
  device: "/job:localhost/replica:0/task:0/device:NGRAPH:0"
  attr {
    key: "T"
    value {
      type: DT_FLOAT
    }
  }
  attr {
    key: "_class"
    value {
      list {
        s: "loc:@v/cg/resnet_v10/conv2/conv2d/kernel"
      }
    }
  }
}
node {
  name: "v/tower_0/cg/resnet_v10/conv2/conv2d/dilation_rate"
  op: "Const"
  device: "/job:localhost/replica:0/task:0/device:NGRAPH:0"
  attr {
    key: "dtype"
    value {
      type: DT_INT32
    }
  }
  attr {
    key: "value"
    value {
      tensor {
        dtype: DT_INT32
        tensor_shape {
          dim {
            size: 2
          }
        }
        tensor_content: "\001\000\000\000\001\000\000\000"
      }
    }
  }
}
node {
  name: "v/tower_0/cg/resnet_v10/conv2/conv2d/Conv2D"
  op: "Conv2D"
  input: "v/tower_0/cg/mpool0/MaxPool"
  input: "v/cg/resnet_v10/conv2/conv2d/kernel/read"
  device: "/job:localhost/replica:0/task:0/device:NGRAPH:0"
  attr {
    key: "T"
    value {
      type: DT_FLOAT
    }
  }
  attr {
    key: "data_format"
    value {
      s: "NCHW"
    }
  }
  attr {
    key: "dilations"
    value {
      list {
        i: 1
        i: 1
        i: 1
        i: 1
      }
    }
  }
  attr {
    key: "padding"
    value {
      s: "SAME"
    }
  }
  attr {
    key: "strides"
    value {
      list {
        i: 1
        i: 1
        i: 1
        i: 1
      }
    }
  }
  attr {
    key: "use_cudnn_on_gpu"
    value {
      b: true
    }
  }
}
node {
  name: "v/cg/resnet_v10/conv2/batchnorm2/gamma/Initializer/ones"
  op: "Const"
  attr {
    key: "_class"
    value {
      list {
        s: "loc:@v/cg/resnet_v10/conv2/batchnorm2/gamma"
      }
    }
  }
  attr {
    key: "dtype"
    value {
      type: DT_FLOAT
    }
  }
  attr {
    key: "value"
    value {
      tensor {
        dtype: DT_FLOAT
        tensor_shape {
          dim {
            size: 64
          }
        }
        float_val: 1.0
      }
    }
  }
}
node {
  name: "v/cg/resnet_v10/conv2/batchnorm2/gamma"
  op: "VariableV2"
  device: "/job:localhost/replica:0/task:0/device:NGRAPH:0"
  attr {
    key: "_class"
    value {
      list {
        s: "loc:@v/cg/resnet_v10/conv2/batchnorm2/gamma"
      }
    }
  }
  attr {
    key: "container"
    value {
      s: ""
    }
  }
  attr {
    key: "dtype"
    value {
      type: DT_FLOAT
    }
  }
  attr {
    key: "shape"
    value {
      shape {
        dim {
          size: 64
        }
      }
    }
  }
  attr {
    key: "shared_name"
    value {
      s: ""
    }
  }
}
node {
  name: "v/cg/resnet_v10/conv2/batchnorm2/gamma/Assign"
  op: "Assign"
  input: "v/cg/resnet_v10/conv2/batchnorm2/gamma"
  input: "v/cg/resnet_v10/conv2/batchnorm2/gamma/Initializer/ones"
  device: "/job:localhost/replica:0/task:0/device:NGRAPH:0"
  attr {
    key: "T"
    value {
      type: DT_FLOAT
    }
  }
  attr {
    key: "_class"
    value {
      list {
        s: "loc:@v/cg/resnet_v10/conv2/batchnorm2/gamma"
      }
    }
  }
  attr {
    key: "use_locking"
    value {
      b: true
    }
  }
  attr {
    key: "validate_shape"
    value {
      b: true
    }
  }
}
node {
  name: "v/cg/resnet_v10/conv2/batchnorm2/gamma/read"
  op: "Identity"
  input: "v/cg/resnet_v10/conv2/batchnorm2/gamma"
  device: "/job:localhost/replica:0/task:0/device:NGRAPH:0"
  attr {
    key: "T"
    value {
      type: DT_FLOAT
    }
  }
  attr {
    key: "_class"
    value {
      list {
        s: "loc:@v/cg/resnet_v10/conv2/batchnorm2/gamma"
      }
    }
  }
}
node {
  name: "v/cg/resnet_v10/conv2/batchnorm2/beta/Initializer/zeros"
  op: "Const"
  attr {
    key: "_class"
    value {
      list {
        s: "loc:@v/cg/resnet_v10/conv2/batchnorm2/beta"
      }
    }
  }
  attr {
    key: "dtype"
    value {
      type: DT_FLOAT
    }
  }
  attr {
    key: "value"
    value {
      tensor {
        dtype: DT_FLOAT
        tensor_shape {
          dim {
            size: 64
          }
        }
        float_val: 0.0
      }
    }
  }
}
node {
  name: "v/cg/resnet_v10/conv2/batchnorm2/beta"
  op: "VariableV2"
  device: "/job:localhost/replica:0/task:0/device:NGRAPH:0"
  attr {
    key: "_class"
    value {
      list {
        s: "loc:@v/cg/resnet_v10/conv2/batchnorm2/beta"
      }
    }
  }
  attr {
    key: "container"
    value {
      s: ""
    }
  }
  attr {
    key: "dtype"
    value {
      type: DT_FLOAT
    }
  }
  attr {
    key: "shape"
    value {
      shape {
        dim {
          size: 64
        }
      }
    }
  }
  attr {
    key: "shared_name"
    value {
      s: ""
    }
  }
}
node {
  name: "v/cg/resnet_v10/conv2/batchnorm2/beta/Assign"
  op: "Assign"
  input: "v/cg/resnet_v10/conv2/batchnorm2/beta"
  input: "v/cg/resnet_v10/conv2/batchnorm2/beta/Initializer/zeros"
  device: "/job:localhost/replica:0/task:0/device:NGRAPH:0"
  attr {
    key: "T"
    value {
      type: DT_FLOAT
    }
  }
  attr {
    key: "_class"
    value {
      list {
        s: "loc:@v/cg/resnet_v10/conv2/batchnorm2/beta"
      }
    }
  }
  attr {
    key: "use_locking"
    value {
      b: true
    }
  }
  attr {
    key: "validate_shape"
    value {
      b: true
    }
  }
}
node {
  name: "v/cg/resnet_v10/conv2/batchnorm2/beta/read"
  op: "Identity"
  input: "v/cg/resnet_v10/conv2/batchnorm2/beta"
  device: "/job:localhost/replica:0/task:0/device:NGRAPH:0"
  attr {
    key: "T"
    value {
      type: DT_FLOAT
    }
  }
  attr {
    key: "_class"
    value {
      list {
        s: "loc:@v/cg/resnet_v10/conv2/batchnorm2/beta"
      }
    }
  }
}
node {
  name: "v/cg/resnet_v10/conv2/batchnorm2/moving_mean/Initializer/zeros"
  op: "Const"
  attr {
    key: "_class"
    value {
      list {
        s: "loc:@v/cg/resnet_v10/conv2/batchnorm2/moving_mean"
      }
    }
  }
  attr {
    key: "dtype"
    value {
      type: DT_FLOAT
    }
  }
  attr {
    key: "value"
    value {
      tensor {
        dtype: DT_FLOAT
        tensor_shape {
          dim {
            size: 64
          }
        }
        float_val: 0.0
      }
    }
  }
}
node {
  name: "v/cg/resnet_v10/conv2/batchnorm2/moving_mean"
  op: "VariableV2"
  device: "/job:localhost/replica:0/task:0/device:NGRAPH:0"
  attr {
    key: "_class"
    value {
      list {
        s: "loc:@v/cg/resnet_v10/conv2/batchnorm2/moving_mean"
      }
    }
  }
  attr {
    key: "container"
    value {
      s: ""
    }
  }
  attr {
    key: "dtype"
    value {
      type: DT_FLOAT
    }
  }
  attr {
    key: "shape"
    value {
      shape {
        dim {
          size: 64
        }
      }
    }
  }
  attr {
    key: "shared_name"
    value {
      s: ""
    }
  }
}
node {
  name: "v/cg/resnet_v10/conv2/batchnorm2/moving_mean/Assign"
  op: "Assign"
  input: "v/cg/resnet_v10/conv2/batchnorm2/moving_mean"
  input: "v/cg/resnet_v10/conv2/batchnorm2/moving_mean/Initializer/zeros"
  device: "/job:localhost/replica:0/task:0/device:NGRAPH:0"
  attr {
    key: "T"
    value {
      type: DT_FLOAT
    }
  }
  attr {
    key: "_class"
    value {
      list {
        s: "loc:@v/cg/resnet_v10/conv2/batchnorm2/moving_mean"
      }
    }
  }
  attr {
    key: "use_locking"
    value {
      b: true
    }
  }
  attr {
    key: "validate_shape"
    value {
      b: true
    }
  }
}
node {
  name: "v/cg/resnet_v10/conv2/batchnorm2/moving_mean/read"
  op: "Identity"
  input: "v/cg/resnet_v10/conv2/batchnorm2/moving_mean"
  device: "/job:localhost/replica:0/task:0/device:NGRAPH:0"
  attr {
    key: "T"
    value {
      type: DT_FLOAT
    }
  }
  attr {
    key: "_class"
    value {
      list {
        s: "loc:@v/cg/resnet_v10/conv2/batchnorm2/moving_mean"
      }
    }
  }
}
node {
  name: "v/cg/resnet_v10/conv2/batchnorm2/moving_variance/Initializer/ones"
  op: "Const"
  attr {
    key: "_class"
    value {
      list {
        s: "loc:@v/cg/resnet_v10/conv2/batchnorm2/moving_variance"
      }
    }
  }
  attr {
    key: "dtype"
    value {
      type: DT_FLOAT
    }
  }
  attr {
    key: "value"
    value {
      tensor {
        dtype: DT_FLOAT
        tensor_shape {
          dim {
            size: 64
          }
        }
        float_val: 1.0
      }
    }
  }
}
node {
  name: "v/cg/resnet_v10/conv2/batchnorm2/moving_variance"
  op: "VariableV2"
  device: "/job:localhost/replica:0/task:0/device:NGRAPH:0"
  attr {
    key: "_class"
    value {
      list {
        s: "loc:@v/cg/resnet_v10/conv2/batchnorm2/moving_variance"
      }
    }
  }
  attr {
    key: "container"
    value {
      s: ""
    }
  }
  attr {
    key: "dtype"
    value {
      type: DT_FLOAT
    }
  }
  attr {
    key: "shape"
    value {
      shape {
        dim {
          size: 64
        }
      }
    }
  }
  attr {
    key: "shared_name"
    value {
      s: ""
    }
  }
}
node {
  name: "v/cg/resnet_v10/conv2/batchnorm2/moving_variance/Assign"
  op: "Assign"
  input: "v/cg/resnet_v10/conv2/batchnorm2/moving_variance"
  input: "v/cg/resnet_v10/conv2/batchnorm2/moving_variance/Initializer/ones"
  device: "/job:localhost/replica:0/task:0/device:NGRAPH:0"
  attr {
    key: "T"
    value {
      type: DT_FLOAT
    }
  }
  attr {
    key: "_class"
    value {
      list {
        s: "loc:@v/cg/resnet_v10/conv2/batchnorm2/moving_variance"
      }
    }
  }
  attr {
    key: "use_locking"
    value {
      b: true
    }
  }
  attr {
    key: "validate_shape"
    value {
      b: true
    }
  }
}
node {
  name: "v/cg/resnet_v10/conv2/batchnorm2/moving_variance/read"
  op: "Identity"
  input: "v/cg/resnet_v10/conv2/batchnorm2/moving_variance"
  device: "/job:localhost/replica:0/task:0/device:NGRAPH:0"
  attr {
    key: "T"
    value {
      type: DT_FLOAT
    }
  }
  attr {
    key: "_class"
    value {
      list {
        s: "loc:@v/cg/resnet_v10/conv2/batchnorm2/moving_variance"
      }
    }
  }
}
node {
  name: "v/tower_0/cg/resnet_v10/conv2/batchnorm2/FusedBatchNorm"
  op: "FusedBatchNorm"
  input: "v/tower_0/cg/resnet_v10/conv2/conv2d/Conv2D"
  input: "v/cg/resnet_v10/conv2/batchnorm2/gamma/read"
  input: "v/cg/resnet_v10/conv2/batchnorm2/beta/read"
  input: "v/cg/resnet_v10/conv2/batchnorm2/moving_mean/read"
  input: "v/cg/resnet_v10/conv2/batchnorm2/moving_variance/read"
  device: "/job:localhost/replica:0/task:0/device:NGRAPH:0"
  attr {
    key: "T"
    value {
      type: DT_FLOAT
    }
  }
  attr {
    key: "data_format"
    value {
      s: "NCHW"
    }
  }
  attr {
    key: "epsilon"
    value {
      f: 1.00099996416e-05
    }
  }
  attr {
    key: "is_training"
    value {
      b: false
    }
  }
}
node {
  name: "v/tower_0/cg/resnet_v10/conv2/batchnorm2/Const"
  op: "Const"
  device: "/job:localhost/replica:0/task:0/device:NGRAPH:0"
  attr {
    key: "dtype"
    value {
      type: DT_FLOAT
    }
  }
  attr {
    key: "value"
    value {
      tensor {
        dtype: DT_FLOAT
        tensor_shape {
        }
        float_val: 0.899999976158
      }
    }
  }
}
node {
  name: "v/tower_0/cg/resnet_v10/conv2/Relu"
  op: "Relu"
  input: "v/tower_0/cg/resnet_v10/conv2/batchnorm2/FusedBatchNorm"
  device: "/job:localhost/replica:0/task:0/device:NGRAPH:0"
  attr {
    key: "T"
    value {
      type: DT_FLOAT
    }
  }
}
node {
  name: "v/cg/resnet_v10/conv3/conv2d/kernel/Initializer/random_uniform/shape"
  op: "Const"
  attr {
    key: "_class"
    value {
      list {
        s: "loc:@v/cg/resnet_v10/conv3/conv2d/kernel"
      }
    }
  }
  attr {
    key: "dtype"
    value {
      type: DT_INT32
    }
  }
  attr {
    key: "value"
    value {
      tensor {
        dtype: DT_INT32
        tensor_shape {
          dim {
            size: 4
          }
        }
        tensor_content: "\003\000\000\000\003\000\000\000@\000\000\000@\000\000\000"
      }
    }
  }
}
node {
  name: "v/cg/resnet_v10/conv3/conv2d/kernel/Initializer/random_uniform/min"
  op: "Const"
  attr {
    key: "_class"
    value {
      list {
        s: "loc:@v/cg/resnet_v10/conv3/conv2d/kernel"
      }
    }
  }
  attr {
    key: "dtype"
    value {
      type: DT_FLOAT
    }
  }
  attr {
    key: "value"
    value {
      tensor {
        dtype: DT_FLOAT
        tensor_shape {
        }
        float_val: -0.0721687823534
      }
    }
  }
}
node {
  name: "v/cg/resnet_v10/conv3/conv2d/kernel/Initializer/random_uniform/max"
  op: "Const"
  attr {
    key: "_class"
    value {
      list {
        s: "loc:@v/cg/resnet_v10/conv3/conv2d/kernel"
      }
    }
  }
  attr {
    key: "dtype"
    value {
      type: DT_FLOAT
    }
  }
  attr {
    key: "value"
    value {
      tensor {
        dtype: DT_FLOAT
        tensor_shape {
        }
        float_val: 0.0721687823534
      }
    }
  }
}
node {
  name: "v/cg/resnet_v10/conv3/conv2d/kernel/Initializer/random_uniform/RandomUniform"
  op: "RandomUniform"
  input: "v/cg/resnet_v10/conv3/conv2d/kernel/Initializer/random_uniform/shape"
  attr {
    key: "T"
    value {
      type: DT_INT32
    }
  }
  attr {
    key: "_class"
    value {
      list {
        s: "loc:@v/cg/resnet_v10/conv3/conv2d/kernel"
      }
    }
  }
  attr {
    key: "dtype"
    value {
      type: DT_FLOAT
    }
  }
  attr {
    key: "seed"
    value {
      i: 1234
    }
  }
  attr {
    key: "seed2"
    value {
      i: 135
    }
  }
}
node {
  name: "v/cg/resnet_v10/conv3/conv2d/kernel/Initializer/random_uniform/sub"
  op: "Sub"
  input: "v/cg/resnet_v10/conv3/conv2d/kernel/Initializer/random_uniform/max"
  input: "v/cg/resnet_v10/conv3/conv2d/kernel/Initializer/random_uniform/min"
  attr {
    key: "T"
    value {
      type: DT_FLOAT
    }
  }
  attr {
    key: "_class"
    value {
      list {
        s: "loc:@v/cg/resnet_v10/conv3/conv2d/kernel"
      }
    }
  }
}
node {
  name: "v/cg/resnet_v10/conv3/conv2d/kernel/Initializer/random_uniform/mul"
  op: "Mul"
  input: "v/cg/resnet_v10/conv3/conv2d/kernel/Initializer/random_uniform/RandomUniform"
  input: "v/cg/resnet_v10/conv3/conv2d/kernel/Initializer/random_uniform/sub"
  attr {
    key: "T"
    value {
      type: DT_FLOAT
    }
  }
  attr {
    key: "_class"
    value {
      list {
        s: "loc:@v/cg/resnet_v10/conv3/conv2d/kernel"
      }
    }
  }
}
node {
  name: "v/cg/resnet_v10/conv3/conv2d/kernel/Initializer/random_uniform"
  op: "Add"
  input: "v/cg/resnet_v10/conv3/conv2d/kernel/Initializer/random_uniform/mul"
  input: "v/cg/resnet_v10/conv3/conv2d/kernel/Initializer/random_uniform/min"
  attr {
    key: "T"
    value {
      type: DT_FLOAT
    }
  }
  attr {
    key: "_class"
    value {
      list {
        s: "loc:@v/cg/resnet_v10/conv3/conv2d/kernel"
      }
    }
  }
}
node {
  name: "v/cg/resnet_v10/conv3/conv2d/kernel"
  op: "VariableV2"
  device: "/job:localhost/replica:0/task:0/device:NGRAPH:0"
  attr {
    key: "_class"
    value {
      list {
        s: "loc:@v/cg/resnet_v10/conv3/conv2d/kernel"
      }
    }
  }
  attr {
    key: "container"
    value {
      s: ""
    }
  }
  attr {
    key: "dtype"
    value {
      type: DT_FLOAT
    }
  }
  attr {
    key: "shape"
    value {
      shape {
        dim {
          size: 3
        }
        dim {
          size: 3
        }
        dim {
          size: 64
        }
        dim {
          size: 64
        }
      }
    }
  }
  attr {
    key: "shared_name"
    value {
      s: ""
    }
  }
}
node {
  name: "v/cg/resnet_v10/conv3/conv2d/kernel/Assign"
  op: "Assign"
  input: "v/cg/resnet_v10/conv3/conv2d/kernel"
  input: "v/cg/resnet_v10/conv3/conv2d/kernel/Initializer/random_uniform"
  device: "/job:localhost/replica:0/task:0/device:NGRAPH:0"
  attr {
    key: "T"
    value {
      type: DT_FLOAT
    }
  }
  attr {
    key: "_class"
    value {
      list {
        s: "loc:@v/cg/resnet_v10/conv3/conv2d/kernel"
      }
    }
  }
  attr {
    key: "use_locking"
    value {
      b: true
    }
  }
  attr {
    key: "validate_shape"
    value {
      b: true
    }
  }
}
node {
  name: "v/cg/resnet_v10/conv3/conv2d/kernel/read"
  op: "Identity"
  input: "v/cg/resnet_v10/conv3/conv2d/kernel"
  device: "/job:localhost/replica:0/task:0/device:NGRAPH:0"
  attr {
    key: "T"
    value {
      type: DT_FLOAT
    }
  }
  attr {
    key: "_class"
    value {
      list {
        s: "loc:@v/cg/resnet_v10/conv3/conv2d/kernel"
      }
    }
  }
}
node {
  name: "v/tower_0/cg/resnet_v10/conv3/conv2d/dilation_rate"
  op: "Const"
  device: "/job:localhost/replica:0/task:0/device:NGRAPH:0"
  attr {
    key: "dtype"
    value {
      type: DT_INT32
    }
  }
  attr {
    key: "value"
    value {
      tensor {
        dtype: DT_INT32
        tensor_shape {
          dim {
            size: 2
          }
        }
        tensor_content: "\001\000\000\000\001\000\000\000"
      }
    }
  }
}
node {
  name: "v/tower_0/cg/resnet_v10/conv3/conv2d/Conv2D"
  op: "Conv2D"
  input: "v/tower_0/cg/resnet_v10/conv2/Relu"
  input: "v/cg/resnet_v10/conv3/conv2d/kernel/read"
  device: "/job:localhost/replica:0/task:0/device:NGRAPH:0"
  attr {
    key: "T"
    value {
      type: DT_FLOAT
    }
  }
  attr {
    key: "data_format"
    value {
      s: "NCHW"
    }
  }
  attr {
    key: "dilations"
    value {
      list {
        i: 1
        i: 1
        i: 1
        i: 1
      }
    }
  }
  attr {
    key: "padding"
    value {
      s: "SAME"
    }
  }
  attr {
    key: "strides"
    value {
      list {
        i: 1
        i: 1
        i: 1
        i: 1
      }
    }
  }
  attr {
    key: "use_cudnn_on_gpu"
    value {
      b: true
    }
  }
}
node {
  name: "v/cg/resnet_v10/conv3/batchnorm3/gamma/Initializer/ones"
  op: "Const"
  attr {
    key: "_class"
    value {
      list {
        s: "loc:@v/cg/resnet_v10/conv3/batchnorm3/gamma"
      }
    }
  }
  attr {
    key: "dtype"
    value {
      type: DT_FLOAT
    }
  }
  attr {
    key: "value"
    value {
      tensor {
        dtype: DT_FLOAT
        tensor_shape {
          dim {
            size: 64
          }
        }
        float_val: 1.0
      }
    }
  }
}
node {
  name: "v/cg/resnet_v10/conv3/batchnorm3/gamma"
  op: "VariableV2"
  device: "/job:localhost/replica:0/task:0/device:NGRAPH:0"
  attr {
    key: "_class"
    value {
      list {
        s: "loc:@v/cg/resnet_v10/conv3/batchnorm3/gamma"
      }
    }
  }
  attr {
    key: "container"
    value {
      s: ""
    }
  }
  attr {
    key: "dtype"
    value {
      type: DT_FLOAT
    }
  }
  attr {
    key: "shape"
    value {
      shape {
        dim {
          size: 64
        }
      }
    }
  }
  attr {
    key: "shared_name"
    value {
      s: ""
    }
  }
}
node {
  name: "v/cg/resnet_v10/conv3/batchnorm3/gamma/Assign"
  op: "Assign"
  input: "v/cg/resnet_v10/conv3/batchnorm3/gamma"
  input: "v/cg/resnet_v10/conv3/batchnorm3/gamma/Initializer/ones"
  device: "/job:localhost/replica:0/task:0/device:NGRAPH:0"
  attr {
    key: "T"
    value {
      type: DT_FLOAT
    }
  }
  attr {
    key: "_class"
    value {
      list {
        s: "loc:@v/cg/resnet_v10/conv3/batchnorm3/gamma"
      }
    }
  }
  attr {
    key: "use_locking"
    value {
      b: true
    }
  }
  attr {
    key: "validate_shape"
    value {
      b: true
    }
  }
}
node {
  name: "v/cg/resnet_v10/conv3/batchnorm3/gamma/read"
  op: "Identity"
  input: "v/cg/resnet_v10/conv3/batchnorm3/gamma"
  device: "/job:localhost/replica:0/task:0/device:NGRAPH:0"
  attr {
    key: "T"
    value {
      type: DT_FLOAT
    }
  }
  attr {
    key: "_class"
    value {
      list {
        s: "loc:@v/cg/resnet_v10/conv3/batchnorm3/gamma"
      }
    }
  }
}
node {
  name: "v/cg/resnet_v10/conv3/batchnorm3/beta/Initializer/zeros"
  op: "Const"
  attr {
    key: "_class"
    value {
      list {
        s: "loc:@v/cg/resnet_v10/conv3/batchnorm3/beta"
      }
    }
  }
  attr {
    key: "dtype"
    value {
      type: DT_FLOAT
    }
  }
  attr {
    key: "value"
    value {
      tensor {
        dtype: DT_FLOAT
        tensor_shape {
          dim {
            size: 64
          }
        }
        float_val: 0.0
      }
    }
  }
}
node {
  name: "v/cg/resnet_v10/conv3/batchnorm3/beta"
  op: "VariableV2"
  device: "/job:localhost/replica:0/task:0/device:NGRAPH:0"
  attr {
    key: "_class"
    value {
      list {
        s: "loc:@v/cg/resnet_v10/conv3/batchnorm3/beta"
      }
    }
  }
  attr {
    key: "container"
    value {
      s: ""
    }
  }
  attr {
    key: "dtype"
    value {
      type: DT_FLOAT
    }
  }
  attr {
    key: "shape"
    value {
      shape {
        dim {
          size: 64
        }
      }
    }
  }
  attr {
    key: "shared_name"
    value {
      s: ""
    }
  }
}
node {
  name: "v/cg/resnet_v10/conv3/batchnorm3/beta/Assign"
  op: "Assign"
  input: "v/cg/resnet_v10/conv3/batchnorm3/beta"
  input: "v/cg/resnet_v10/conv3/batchnorm3/beta/Initializer/zeros"
  device: "/job:localhost/replica:0/task:0/device:NGRAPH:0"
  attr {
    key: "T"
    value {
      type: DT_FLOAT
    }
  }
  attr {
    key: "_class"
    value {
      list {
        s: "loc:@v/cg/resnet_v10/conv3/batchnorm3/beta"
      }
    }
  }
  attr {
    key: "use_locking"
    value {
      b: true
    }
  }
  attr {
    key: "validate_shape"
    value {
      b: true
    }
  }
}
node {
  name: "v/cg/resnet_v10/conv3/batchnorm3/beta/read"
  op: "Identity"
  input: "v/cg/resnet_v10/conv3/batchnorm3/beta"
  device: "/job:localhost/replica:0/task:0/device:NGRAPH:0"
  attr {
    key: "T"
    value {
      type: DT_FLOAT
    }
  }
  attr {
    key: "_class"
    value {
      list {
        s: "loc:@v/cg/resnet_v10/conv3/batchnorm3/beta"
      }
    }
  }
}
node {
  name: "v/cg/resnet_v10/conv3/batchnorm3/moving_mean/Initializer/zeros"
  op: "Const"
  attr {
    key: "_class"
    value {
      list {
        s: "loc:@v/cg/resnet_v10/conv3/batchnorm3/moving_mean"
      }
    }
  }
  attr {
    key: "dtype"
    value {
      type: DT_FLOAT
    }
  }
  attr {
    key: "value"
    value {
      tensor {
        dtype: DT_FLOAT
        tensor_shape {
          dim {
            size: 64
          }
        }
        float_val: 0.0
      }
    }
  }
}
node {
  name: "v/cg/resnet_v10/conv3/batchnorm3/moving_mean"
  op: "VariableV2"
  device: "/job:localhost/replica:0/task:0/device:NGRAPH:0"
  attr {
    key: "_class"
    value {
      list {
        s: "loc:@v/cg/resnet_v10/conv3/batchnorm3/moving_mean"
      }
    }
  }
  attr {
    key: "container"
    value {
      s: ""
    }
  }
  attr {
    key: "dtype"
    value {
      type: DT_FLOAT
    }
  }
  attr {
    key: "shape"
    value {
      shape {
        dim {
          size: 64
        }
      }
    }
  }
  attr {
    key: "shared_name"
    value {
      s: ""
    }
  }
}
node {
  name: "v/cg/resnet_v10/conv3/batchnorm3/moving_mean/Assign"
  op: "Assign"
  input: "v/cg/resnet_v10/conv3/batchnorm3/moving_mean"
  input: "v/cg/resnet_v10/conv3/batchnorm3/moving_mean/Initializer/zeros"
  device: "/job:localhost/replica:0/task:0/device:NGRAPH:0"
  attr {
    key: "T"
    value {
      type: DT_FLOAT
    }
  }
  attr {
    key: "_class"
    value {
      list {
        s: "loc:@v/cg/resnet_v10/conv3/batchnorm3/moving_mean"
      }
    }
  }
  attr {
    key: "use_locking"
    value {
      b: true
    }
  }
  attr {
    key: "validate_shape"
    value {
      b: true
    }
  }
}
node {
  name: "v/cg/resnet_v10/conv3/batchnorm3/moving_mean/read"
  op: "Identity"
  input: "v/cg/resnet_v10/conv3/batchnorm3/moving_mean"
  device: "/job:localhost/replica:0/task:0/device:NGRAPH:0"
  attr {
    key: "T"
    value {
      type: DT_FLOAT
    }
  }
  attr {
    key: "_class"
    value {
      list {
        s: "loc:@v/cg/resnet_v10/conv3/batchnorm3/moving_mean"
      }
    }
  }
}
node {
  name: "v/cg/resnet_v10/conv3/batchnorm3/moving_variance/Initializer/ones"
  op: "Const"
  attr {
    key: "_class"
    value {
      list {
        s: "loc:@v/cg/resnet_v10/conv3/batchnorm3/moving_variance"
      }
    }
  }
  attr {
    key: "dtype"
    value {
      type: DT_FLOAT
    }
  }
  attr {
    key: "value"
    value {
      tensor {
        dtype: DT_FLOAT
        tensor_shape {
          dim {
            size: 64
          }
        }
        float_val: 1.0
      }
    }
  }
}
node {
  name: "v/cg/resnet_v10/conv3/batchnorm3/moving_variance"
  op: "VariableV2"
  device: "/job:localhost/replica:0/task:0/device:NGRAPH:0"
  attr {
    key: "_class"
    value {
      list {
        s: "loc:@v/cg/resnet_v10/conv3/batchnorm3/moving_variance"
      }
    }
  }
  attr {
    key: "container"
    value {
      s: ""
    }
  }
  attr {
    key: "dtype"
    value {
      type: DT_FLOAT
    }
  }
  attr {
    key: "shape"
    value {
      shape {
        dim {
          size: 64
        }
      }
    }
  }
  attr {
    key: "shared_name"
    value {
      s: ""
    }
  }
}
node {
  name: "v/cg/resnet_v10/conv3/batchnorm3/moving_variance/Assign"
  op: "Assign"
  input: "v/cg/resnet_v10/conv3/batchnorm3/moving_variance"
  input: "v/cg/resnet_v10/conv3/batchnorm3/moving_variance/Initializer/ones"
  device: "/job:localhost/replica:0/task:0/device:NGRAPH:0"
  attr {
    key: "T"
    value {
      type: DT_FLOAT
    }
  }
  attr {
    key: "_class"
    value {
      list {
        s: "loc:@v/cg/resnet_v10/conv3/batchnorm3/moving_variance"
      }
    }
  }
  attr {
    key: "use_locking"
    value {
      b: true
    }
  }
  attr {
    key: "validate_shape"
    value {
      b: true
    }
  }
}
node {
  name: "v/cg/resnet_v10/conv3/batchnorm3/moving_variance/read"
  op: "Identity"
  input: "v/cg/resnet_v10/conv3/batchnorm3/moving_variance"
  device: "/job:localhost/replica:0/task:0/device:NGRAPH:0"
  attr {
    key: "T"
    value {
      type: DT_FLOAT
    }
  }
  attr {
    key: "_class"
    value {
      list {
        s: "loc:@v/cg/resnet_v10/conv3/batchnorm3/moving_variance"
      }
    }
  }
}
node {
  name: "v/tower_0/cg/resnet_v10/conv3/batchnorm3/FusedBatchNorm"
  op: "FusedBatchNorm"
  input: "v/tower_0/cg/resnet_v10/conv3/conv2d/Conv2D"
  input: "v/cg/resnet_v10/conv3/batchnorm3/gamma/read"
  input: "v/cg/resnet_v10/conv3/batchnorm3/beta/read"
  input: "v/cg/resnet_v10/conv3/batchnorm3/moving_mean/read"
  input: "v/cg/resnet_v10/conv3/batchnorm3/moving_variance/read"
  device: "/job:localhost/replica:0/task:0/device:NGRAPH:0"
  attr {
    key: "T"
    value {
      type: DT_FLOAT
    }
  }
  attr {
    key: "data_format"
    value {
      s: "NCHW"
    }
  }
  attr {
    key: "epsilon"
    value {
      f: 1.00099996416e-05
    }
  }
  attr {
    key: "is_training"
    value {
      b: false
    }
  }
}
node {
  name: "v/tower_0/cg/resnet_v10/conv3/batchnorm3/Const"
  op: "Const"
  device: "/job:localhost/replica:0/task:0/device:NGRAPH:0"
  attr {
    key: "dtype"
    value {
      type: DT_FLOAT
    }
  }
  attr {
    key: "value"
    value {
      tensor {
        dtype: DT_FLOAT
        tensor_shape {
        }
        float_val: 0.899999976158
      }
    }
  }
}
node {
  name: "v/tower_0/cg/resnet_v10/conv3/Relu"
  op: "Relu"
  input: "v/tower_0/cg/resnet_v10/conv3/batchnorm3/FusedBatchNorm"
  device: "/job:localhost/replica:0/task:0/device:NGRAPH:0"
  attr {
    key: "T"
    value {
      type: DT_FLOAT
    }
  }
}
node {
  name: "v/cg/resnet_v10/conv4/conv2d/kernel/Initializer/random_uniform/shape"
  op: "Const"
  attr {
    key: "_class"
    value {
      list {
        s: "loc:@v/cg/resnet_v10/conv4/conv2d/kernel"
      }
    }
  }
  attr {
    key: "dtype"
    value {
      type: DT_INT32
    }
  }
  attr {
    key: "value"
    value {
      tensor {
        dtype: DT_INT32
        tensor_shape {
          dim {
            size: 4
          }
        }
        tensor_content: "\001\000\000\000\001\000\000\000@\000\000\000\000\001\000\000"
      }
    }
  }
}
node {
  name: "v/cg/resnet_v10/conv4/conv2d/kernel/Initializer/random_uniform/min"
  op: "Const"
  attr {
    key: "_class"
    value {
      list {
        s: "loc:@v/cg/resnet_v10/conv4/conv2d/kernel"
      }
    }
  }
  attr {
    key: "dtype"
    value {
      type: DT_FLOAT
    }
  }
  attr {
    key: "value"
    value {
      tensor {
        dtype: DT_FLOAT
        tensor_shape {
        }
        float_val: -0.136930644512
      }
    }
  }
}
node {
  name: "v/cg/resnet_v10/conv4/conv2d/kernel/Initializer/random_uniform/max"
  op: "Const"
  attr {
    key: "_class"
    value {
      list {
        s: "loc:@v/cg/resnet_v10/conv4/conv2d/kernel"
      }
    }
  }
  attr {
    key: "dtype"
    value {
      type: DT_FLOAT
    }
  }
  attr {
    key: "value"
    value {
      tensor {
        dtype: DT_FLOAT
        tensor_shape {
        }
        float_val: 0.136930644512
      }
    }
  }
}
node {
  name: "v/cg/resnet_v10/conv4/conv2d/kernel/Initializer/random_uniform/RandomUniform"
  op: "RandomUniform"
  input: "v/cg/resnet_v10/conv4/conv2d/kernel/Initializer/random_uniform/shape"
  attr {
    key: "T"
    value {
      type: DT_INT32
    }
  }
  attr {
    key: "_class"
    value {
      list {
        s: "loc:@v/cg/resnet_v10/conv4/conv2d/kernel"
      }
    }
  }
  attr {
    key: "dtype"
    value {
      type: DT_FLOAT
    }
  }
  attr {
    key: "seed"
    value {
      i: 1234
    }
  }
  attr {
    key: "seed2"
    value {
      i: 166
    }
  }
}
node {
  name: "v/cg/resnet_v10/conv4/conv2d/kernel/Initializer/random_uniform/sub"
  op: "Sub"
  input: "v/cg/resnet_v10/conv4/conv2d/kernel/Initializer/random_uniform/max"
  input: "v/cg/resnet_v10/conv4/conv2d/kernel/Initializer/random_uniform/min"
  attr {
    key: "T"
    value {
      type: DT_FLOAT
    }
  }
  attr {
    key: "_class"
    value {
      list {
        s: "loc:@v/cg/resnet_v10/conv4/conv2d/kernel"
      }
    }
  }
}
node {
  name: "v/cg/resnet_v10/conv4/conv2d/kernel/Initializer/random_uniform/mul"
  op: "Mul"
  input: "v/cg/resnet_v10/conv4/conv2d/kernel/Initializer/random_uniform/RandomUniform"
  input: "v/cg/resnet_v10/conv4/conv2d/kernel/Initializer/random_uniform/sub"
  attr {
    key: "T"
    value {
      type: DT_FLOAT
    }
  }
  attr {
    key: "_class"
    value {
      list {
        s: "loc:@v/cg/resnet_v10/conv4/conv2d/kernel"
      }
    }
  }
}
node {
  name: "v/cg/resnet_v10/conv4/conv2d/kernel/Initializer/random_uniform"
  op: "Add"
  input: "v/cg/resnet_v10/conv4/conv2d/kernel/Initializer/random_uniform/mul"
  input: "v/cg/resnet_v10/conv4/conv2d/kernel/Initializer/random_uniform/min"
  attr {
    key: "T"
    value {
      type: DT_FLOAT
    }
  }
  attr {
    key: "_class"
    value {
      list {
        s: "loc:@v/cg/resnet_v10/conv4/conv2d/kernel"
      }
    }
  }
}
node {
  name: "v/cg/resnet_v10/conv4/conv2d/kernel"
  op: "VariableV2"
  device: "/job:localhost/replica:0/task:0/device:NGRAPH:0"
  attr {
    key: "_class"
    value {
      list {
        s: "loc:@v/cg/resnet_v10/conv4/conv2d/kernel"
      }
    }
  }
  attr {
    key: "container"
    value {
      s: ""
    }
  }
  attr {
    key: "dtype"
    value {
      type: DT_FLOAT
    }
  }
  attr {
    key: "shape"
    value {
      shape {
        dim {
          size: 1
        }
        dim {
          size: 1
        }
        dim {
          size: 64
        }
        dim {
          size: 256
        }
      }
    }
  }
  attr {
    key: "shared_name"
    value {
      s: ""
    }
  }
}
node {
  name: "v/cg/resnet_v10/conv4/conv2d/kernel/Assign"
  op: "Assign"
  input: "v/cg/resnet_v10/conv4/conv2d/kernel"
  input: "v/cg/resnet_v10/conv4/conv2d/kernel/Initializer/random_uniform"
  device: "/job:localhost/replica:0/task:0/device:NGRAPH:0"
  attr {
    key: "T"
    value {
      type: DT_FLOAT
    }
  }
  attr {
    key: "_class"
    value {
      list {
        s: "loc:@v/cg/resnet_v10/conv4/conv2d/kernel"
      }
    }
  }
  attr {
    key: "use_locking"
    value {
      b: true
    }
  }
  attr {
    key: "validate_shape"
    value {
      b: true
    }
  }
}
node {
  name: "v/cg/resnet_v10/conv4/conv2d/kernel/read"
  op: "Identity"
  input: "v/cg/resnet_v10/conv4/conv2d/kernel"
  device: "/job:localhost/replica:0/task:0/device:NGRAPH:0"
  attr {
    key: "T"
    value {
      type: DT_FLOAT
    }
  }
  attr {
    key: "_class"
    value {
      list {
        s: "loc:@v/cg/resnet_v10/conv4/conv2d/kernel"
      }
    }
  }
}
node {
  name: "v/tower_0/cg/resnet_v10/conv4/conv2d/dilation_rate"
  op: "Const"
  device: "/job:localhost/replica:0/task:0/device:NGRAPH:0"
  attr {
    key: "dtype"
    value {
      type: DT_INT32
    }
  }
  attr {
    key: "value"
    value {
      tensor {
        dtype: DT_INT32
        tensor_shape {
          dim {
            size: 2
          }
        }
        tensor_content: "\001\000\000\000\001\000\000\000"
      }
    }
  }
}
node {
  name: "v/tower_0/cg/resnet_v10/conv4/conv2d/Conv2D"
  op: "Conv2D"
  input: "v/tower_0/cg/resnet_v10/conv3/Relu"
  input: "v/cg/resnet_v10/conv4/conv2d/kernel/read"
  device: "/job:localhost/replica:0/task:0/device:NGRAPH:0"
  attr {
    key: "T"
    value {
      type: DT_FLOAT
    }
  }
  attr {
    key: "data_format"
    value {
      s: "NCHW"
    }
  }
  attr {
    key: "dilations"
    value {
      list {
        i: 1
        i: 1
        i: 1
        i: 1
      }
    }
  }
  attr {
    key: "padding"
    value {
      s: "SAME"
    }
  }
  attr {
    key: "strides"
    value {
      list {
        i: 1
        i: 1
        i: 1
        i: 1
      }
    }
  }
  attr {
    key: "use_cudnn_on_gpu"
    value {
      b: true
    }
  }
}
node {
  name: "v/cg/resnet_v10/conv4/batchnorm4/gamma/Initializer/ones"
  op: "Const"
  attr {
    key: "_class"
    value {
      list {
        s: "loc:@v/cg/resnet_v10/conv4/batchnorm4/gamma"
      }
    }
  }
  attr {
    key: "dtype"
    value {
      type: DT_FLOAT
    }
  }
  attr {
    key: "value"
    value {
      tensor {
        dtype: DT_FLOAT
        tensor_shape {
          dim {
            size: 256
          }
        }
        float_val: 1.0
      }
    }
  }
}
node {
  name: "v/cg/resnet_v10/conv4/batchnorm4/gamma"
  op: "VariableV2"
  device: "/job:localhost/replica:0/task:0/device:NGRAPH:0"
  attr {
    key: "_class"
    value {
      list {
        s: "loc:@v/cg/resnet_v10/conv4/batchnorm4/gamma"
      }
    }
  }
  attr {
    key: "container"
    value {
      s: ""
    }
  }
  attr {
    key: "dtype"
    value {
      type: DT_FLOAT
    }
  }
  attr {
    key: "shape"
    value {
      shape {
        dim {
          size: 256
        }
      }
    }
  }
  attr {
    key: "shared_name"
    value {
      s: ""
    }
  }
}
node {
  name: "v/cg/resnet_v10/conv4/batchnorm4/gamma/Assign"
  op: "Assign"
  input: "v/cg/resnet_v10/conv4/batchnorm4/gamma"
  input: "v/cg/resnet_v10/conv4/batchnorm4/gamma/Initializer/ones"
  device: "/job:localhost/replica:0/task:0/device:NGRAPH:0"
  attr {
    key: "T"
    value {
      type: DT_FLOAT
    }
  }
  attr {
    key: "_class"
    value {
      list {
        s: "loc:@v/cg/resnet_v10/conv4/batchnorm4/gamma"
      }
    }
  }
  attr {
    key: "use_locking"
    value {
      b: true
    }
  }
  attr {
    key: "validate_shape"
    value {
      b: true
    }
  }
}
node {
  name: "v/cg/resnet_v10/conv4/batchnorm4/gamma/read"
  op: "Identity"
  input: "v/cg/resnet_v10/conv4/batchnorm4/gamma"
  device: "/job:localhost/replica:0/task:0/device:NGRAPH:0"
  attr {
    key: "T"
    value {
      type: DT_FLOAT
    }
  }
  attr {
    key: "_class"
    value {
      list {
        s: "loc:@v/cg/resnet_v10/conv4/batchnorm4/gamma"
      }
    }
  }
}
node {
  name: "v/cg/resnet_v10/conv4/batchnorm4/beta/Initializer/zeros"
  op: "Const"
  attr {
    key: "_class"
    value {
      list {
        s: "loc:@v/cg/resnet_v10/conv4/batchnorm4/beta"
      }
    }
  }
  attr {
    key: "dtype"
    value {
      type: DT_FLOAT
    }
  }
  attr {
    key: "value"
    value {
      tensor {
        dtype: DT_FLOAT
        tensor_shape {
          dim {
            size: 256
          }
        }
        float_val: 0.0
      }
    }
  }
}
node {
  name: "v/cg/resnet_v10/conv4/batchnorm4/beta"
  op: "VariableV2"
  device: "/job:localhost/replica:0/task:0/device:NGRAPH:0"
  attr {
    key: "_class"
    value {
      list {
        s: "loc:@v/cg/resnet_v10/conv4/batchnorm4/beta"
      }
    }
  }
  attr {
    key: "container"
    value {
      s: ""
    }
  }
  attr {
    key: "dtype"
    value {
      type: DT_FLOAT
    }
  }
  attr {
    key: "shape"
    value {
      shape {
        dim {
          size: 256
        }
      }
    }
  }
  attr {
    key: "shared_name"
    value {
      s: ""
    }
  }
}
node {
  name: "v/cg/resnet_v10/conv4/batchnorm4/beta/Assign"
  op: "Assign"
  input: "v/cg/resnet_v10/conv4/batchnorm4/beta"
  input: "v/cg/resnet_v10/conv4/batchnorm4/beta/Initializer/zeros"
  device: "/job:localhost/replica:0/task:0/device:NGRAPH:0"
  attr {
    key: "T"
    value {
      type: DT_FLOAT
    }
  }
  attr {
    key: "_class"
    value {
      list {
        s: "loc:@v/cg/resnet_v10/conv4/batchnorm4/beta"
      }
    }
  }
  attr {
    key: "use_locking"
    value {
      b: true
    }
  }
  attr {
    key: "validate_shape"
    value {
      b: true
    }
  }
}
node {
  name: "v/cg/resnet_v10/conv4/batchnorm4/beta/read"
  op: "Identity"
  input: "v/cg/resnet_v10/conv4/batchnorm4/beta"
  device: "/job:localhost/replica:0/task:0/device:NGRAPH:0"
  attr {
    key: "T"
    value {
      type: DT_FLOAT
    }
  }
  attr {
    key: "_class"
    value {
      list {
        s: "loc:@v/cg/resnet_v10/conv4/batchnorm4/beta"
      }
    }
  }
}
node {
  name: "v/cg/resnet_v10/conv4/batchnorm4/moving_mean/Initializer/zeros"
  op: "Const"
  attr {
    key: "_class"
    value {
      list {
        s: "loc:@v/cg/resnet_v10/conv4/batchnorm4/moving_mean"
      }
    }
  }
  attr {
    key: "dtype"
    value {
      type: DT_FLOAT
    }
  }
  attr {
    key: "value"
    value {
      tensor {
        dtype: DT_FLOAT
        tensor_shape {
          dim {
            size: 256
          }
        }
        float_val: 0.0
      }
    }
  }
}
node {
  name: "v/cg/resnet_v10/conv4/batchnorm4/moving_mean"
  op: "VariableV2"
  device: "/job:localhost/replica:0/task:0/device:NGRAPH:0"
  attr {
    key: "_class"
    value {
      list {
        s: "loc:@v/cg/resnet_v10/conv4/batchnorm4/moving_mean"
      }
    }
  }
  attr {
    key: "container"
    value {
      s: ""
    }
  }
  attr {
    key: "dtype"
    value {
      type: DT_FLOAT
    }
  }
  attr {
    key: "shape"
    value {
      shape {
        dim {
          size: 256
        }
      }
    }
  }
  attr {
    key: "shared_name"
    value {
      s: ""
    }
  }
}
node {
  name: "v/cg/resnet_v10/conv4/batchnorm4/moving_mean/Assign"
  op: "Assign"
  input: "v/cg/resnet_v10/conv4/batchnorm4/moving_mean"
  input: "v/cg/resnet_v10/conv4/batchnorm4/moving_mean/Initializer/zeros"
  device: "/job:localhost/replica:0/task:0/device:NGRAPH:0"
  attr {
    key: "T"
    value {
      type: DT_FLOAT
    }
  }
  attr {
    key: "_class"
    value {
      list {
        s: "loc:@v/cg/resnet_v10/conv4/batchnorm4/moving_mean"
      }
    }
  }
  attr {
    key: "use_locking"
    value {
      b: true
    }
  }
  attr {
    key: "validate_shape"
    value {
      b: true
    }
  }
}
node {
  name: "v/cg/resnet_v10/conv4/batchnorm4/moving_mean/read"
  op: "Identity"
  input: "v/cg/resnet_v10/conv4/batchnorm4/moving_mean"
  device: "/job:localhost/replica:0/task:0/device:NGRAPH:0"
  attr {
    key: "T"
    value {
      type: DT_FLOAT
    }
  }
  attr {
    key: "_class"
    value {
      list {
        s: "loc:@v/cg/resnet_v10/conv4/batchnorm4/moving_mean"
      }
    }
  }
}
node {
  name: "v/cg/resnet_v10/conv4/batchnorm4/moving_variance/Initializer/ones"
  op: "Const"
  attr {
    key: "_class"
    value {
      list {
        s: "loc:@v/cg/resnet_v10/conv4/batchnorm4/moving_variance"
      }
    }
  }
  attr {
    key: "dtype"
    value {
      type: DT_FLOAT
    }
  }
  attr {
    key: "value"
    value {
      tensor {
        dtype: DT_FLOAT
        tensor_shape {
          dim {
            size: 256
          }
        }
        float_val: 1.0
      }
    }
  }
}
node {
  name: "v/cg/resnet_v10/conv4/batchnorm4/moving_variance"
  op: "VariableV2"
  device: "/job:localhost/replica:0/task:0/device:NGRAPH:0"
  attr {
    key: "_class"
    value {
      list {
        s: "loc:@v/cg/resnet_v10/conv4/batchnorm4/moving_variance"
      }
    }
  }
  attr {
    key: "container"
    value {
      s: ""
    }
  }
  attr {
    key: "dtype"
    value {
      type: DT_FLOAT
    }
  }
  attr {
    key: "shape"
    value {
      shape {
        dim {
          size: 256
        }
      }
    }
  }
  attr {
    key: "shared_name"
    value {
      s: ""
    }
  }
}
node {
  name: "v/cg/resnet_v10/conv4/batchnorm4/moving_variance/Assign"
  op: "Assign"
  input: "v/cg/resnet_v10/conv4/batchnorm4/moving_variance"
  input: "v/cg/resnet_v10/conv4/batchnorm4/moving_variance/Initializer/ones"
  device: "/job:localhost/replica:0/task:0/device:NGRAPH:0"
  attr {
    key: "T"
    value {
      type: DT_FLOAT
    }
  }
  attr {
    key: "_class"
    value {
      list {
        s: "loc:@v/cg/resnet_v10/conv4/batchnorm4/moving_variance"
      }
    }
  }
  attr {
    key: "use_locking"
    value {
      b: true
    }
  }
  attr {
    key: "validate_shape"
    value {
      b: true
    }
  }
}
node {
  name: "v/cg/resnet_v10/conv4/batchnorm4/moving_variance/read"
  op: "Identity"
  input: "v/cg/resnet_v10/conv4/batchnorm4/moving_variance"
  device: "/job:localhost/replica:0/task:0/device:NGRAPH:0"
  attr {
    key: "T"
    value {
      type: DT_FLOAT
    }
  }
  attr {
    key: "_class"
    value {
      list {
        s: "loc:@v/cg/resnet_v10/conv4/batchnorm4/moving_variance"
      }
    }
  }
}
node {
  name: "v/tower_0/cg/resnet_v10/conv4/batchnorm4/FusedBatchNorm"
  op: "FusedBatchNorm"
  input: "v/tower_0/cg/resnet_v10/conv4/conv2d/Conv2D"
  input: "v/cg/resnet_v10/conv4/batchnorm4/gamma/read"
  input: "v/cg/resnet_v10/conv4/batchnorm4/beta/read"
  input: "v/cg/resnet_v10/conv4/batchnorm4/moving_mean/read"
  input: "v/cg/resnet_v10/conv4/batchnorm4/moving_variance/read"
  device: "/job:localhost/replica:0/task:0/device:NGRAPH:0"
  attr {
    key: "T"
    value {
      type: DT_FLOAT
    }
  }
  attr {
    key: "data_format"
    value {
      s: "NCHW"
    }
  }
  attr {
    key: "epsilon"
    value {
      f: 1.00099996416e-05
    }
  }
  attr {
    key: "is_training"
    value {
      b: false
    }
  }
}
node {
  name: "v/tower_0/cg/resnet_v10/conv4/batchnorm4/Const"
  op: "Const"
  device: "/job:localhost/replica:0/task:0/device:NGRAPH:0"
  attr {
    key: "dtype"
    value {
      type: DT_FLOAT
    }
  }
  attr {
    key: "value"
    value {
      tensor {
        dtype: DT_FLOAT
        tensor_shape {
        }
        float_val: 0.899999976158
      }
    }
  }
}
node {
  name: "v/tower_0/cg/resnet_v10/add"
  op: "Add"
  input: "v/tower_0/cg/resnet_v10/conv1/batchnorm1/FusedBatchNorm"
  input: "v/tower_0/cg/resnet_v10/conv4/batchnorm4/FusedBatchNorm"
  device: "/job:localhost/replica:0/task:0/device:NGRAPH:0"
  attr {
    key: "T"
    value {
      type: DT_FLOAT
    }
  }
}
node {
  name: "v/tower_0/cg/resnet_v10/Relu"
  op: "Relu"
  input: "v/tower_0/cg/resnet_v10/add"
  device: "/job:localhost/replica:0/task:0/device:NGRAPH:0"
  attr {
    key: "T"
    value {
      type: DT_FLOAT
    }
  }
}
node {
  name: "v/cg/resnet_v11/conv5/conv2d/kernel/Initializer/random_uniform/shape"
  op: "Const"
  attr {
    key: "_class"
    value {
      list {
        s: "loc:@v/cg/resnet_v11/conv5/conv2d/kernel"
      }
    }
  }
  attr {
    key: "dtype"
    value {
      type: DT_INT32
    }
  }
  attr {
    key: "value"
    value {
      tensor {
        dtype: DT_INT32
        tensor_shape {
          dim {
            size: 4
          }
        }
        tensor_content: "\001\000\000\000\001\000\000\000\000\001\000\000@\000\000\000"
      }
    }
  }
}
node {
  name: "v/cg/resnet_v11/conv5/conv2d/kernel/Initializer/random_uniform/min"
  op: "Const"
  attr {
    key: "_class"
    value {
      list {
        s: "loc:@v/cg/resnet_v11/conv5/conv2d/kernel"
      }
    }
  }
  attr {
    key: "dtype"
    value {
      type: DT_FLOAT
    }
  }
  attr {
    key: "value"
    value {
      tensor {
        dtype: DT_FLOAT
        tensor_shape {
        }
        float_val: -0.136930644512
      }
    }
  }
}
node {
  name: "v/cg/resnet_v11/conv5/conv2d/kernel/Initializer/random_uniform/max"
  op: "Const"
  attr {
    key: "_class"
    value {
      list {
        s: "loc:@v/cg/resnet_v11/conv5/conv2d/kernel"
      }
    }
  }
  attr {
    key: "dtype"
    value {
      type: DT_FLOAT
    }
  }
  attr {
    key: "value"
    value {
      tensor {
        dtype: DT_FLOAT
        tensor_shape {
        }
        float_val: 0.136930644512
      }
    }
  }
}
node {
  name: "v/cg/resnet_v11/conv5/conv2d/kernel/Initializer/random_uniform/RandomUniform"
  op: "RandomUniform"
  input: "v/cg/resnet_v11/conv5/conv2d/kernel/Initializer/random_uniform/shape"
  attr {
    key: "T"
    value {
      type: DT_INT32
    }
  }
  attr {
    key: "_class"
    value {
      list {
        s: "loc:@v/cg/resnet_v11/conv5/conv2d/kernel"
      }
    }
  }
  attr {
    key: "dtype"
    value {
      type: DT_FLOAT
    }
  }
  attr {
    key: "seed"
    value {
      i: 1234
    }
  }
  attr {
    key: "seed2"
    value {
      i: 198
    }
  }
}
node {
  name: "v/cg/resnet_v11/conv5/conv2d/kernel/Initializer/random_uniform/sub"
  op: "Sub"
  input: "v/cg/resnet_v11/conv5/conv2d/kernel/Initializer/random_uniform/max"
  input: "v/cg/resnet_v11/conv5/conv2d/kernel/Initializer/random_uniform/min"
  attr {
    key: "T"
    value {
      type: DT_FLOAT
    }
  }
  attr {
    key: "_class"
    value {
      list {
        s: "loc:@v/cg/resnet_v11/conv5/conv2d/kernel"
      }
    }
  }
}
node {
  name: "v/cg/resnet_v11/conv5/conv2d/kernel/Initializer/random_uniform/mul"
  op: "Mul"
  input: "v/cg/resnet_v11/conv5/conv2d/kernel/Initializer/random_uniform/RandomUniform"
  input: "v/cg/resnet_v11/conv5/conv2d/kernel/Initializer/random_uniform/sub"
  attr {
    key: "T"
    value {
      type: DT_FLOAT
    }
  }
  attr {
    key: "_class"
    value {
      list {
        s: "loc:@v/cg/resnet_v11/conv5/conv2d/kernel"
      }
    }
  }
}
node {
  name: "v/cg/resnet_v11/conv5/conv2d/kernel/Initializer/random_uniform"
  op: "Add"
  input: "v/cg/resnet_v11/conv5/conv2d/kernel/Initializer/random_uniform/mul"
  input: "v/cg/resnet_v11/conv5/conv2d/kernel/Initializer/random_uniform/min"
  attr {
    key: "T"
    value {
      type: DT_FLOAT
    }
  }
  attr {
    key: "_class"
    value {
      list {
        s: "loc:@v/cg/resnet_v11/conv5/conv2d/kernel"
      }
    }
  }
}
node {
  name: "v/cg/resnet_v11/conv5/conv2d/kernel"
  op: "VariableV2"
  device: "/job:localhost/replica:0/task:0/device:NGRAPH:0"
  attr {
    key: "_class"
    value {
      list {
        s: "loc:@v/cg/resnet_v11/conv5/conv2d/kernel"
      }
    }
  }
  attr {
    key: "container"
    value {
      s: ""
    }
  }
  attr {
    key: "dtype"
    value {
      type: DT_FLOAT
    }
  }
  attr {
    key: "shape"
    value {
      shape {
        dim {
          size: 1
        }
        dim {
          size: 1
        }
        dim {
          size: 256
        }
        dim {
          size: 64
        }
      }
    }
  }
  attr {
    key: "shared_name"
    value {
      s: ""
    }
  }
}
node {
  name: "v/cg/resnet_v11/conv5/conv2d/kernel/Assign"
  op: "Assign"
  input: "v/cg/resnet_v11/conv5/conv2d/kernel"
  input: "v/cg/resnet_v11/conv5/conv2d/kernel/Initializer/random_uniform"
  device: "/job:localhost/replica:0/task:0/device:NGRAPH:0"
  attr {
    key: "T"
    value {
      type: DT_FLOAT
    }
  }
  attr {
    key: "_class"
    value {
      list {
        s: "loc:@v/cg/resnet_v11/conv5/conv2d/kernel"
      }
    }
  }
  attr {
    key: "use_locking"
    value {
      b: true
    }
  }
  attr {
    key: "validate_shape"
    value {
      b: true
    }
  }
}
node {
  name: "v/cg/resnet_v11/conv5/conv2d/kernel/read"
  op: "Identity"
  input: "v/cg/resnet_v11/conv5/conv2d/kernel"
  device: "/job:localhost/replica:0/task:0/device:NGRAPH:0"
  attr {
    key: "T"
    value {
      type: DT_FLOAT
    }
  }
  attr {
    key: "_class"
    value {
      list {
        s: "loc:@v/cg/resnet_v11/conv5/conv2d/kernel"
      }
    }
  }
}
node {
  name: "v/tower_0/cg/resnet_v11/conv5/conv2d/dilation_rate"
  op: "Const"
  device: "/job:localhost/replica:0/task:0/device:NGRAPH:0"
  attr {
    key: "dtype"
    value {
      type: DT_INT32
    }
  }
  attr {
    key: "value"
    value {
      tensor {
        dtype: DT_INT32
        tensor_shape {
          dim {
            size: 2
          }
        }
        tensor_content: "\001\000\000\000\001\000\000\000"
      }
    }
  }
}
node {
  name: "v/tower_0/cg/resnet_v11/conv5/conv2d/Conv2D"
  op: "Conv2D"
  input: "v/tower_0/cg/resnet_v10/Relu"
  input: "v/cg/resnet_v11/conv5/conv2d/kernel/read"
  device: "/job:localhost/replica:0/task:0/device:NGRAPH:0"
  attr {
    key: "T"
    value {
      type: DT_FLOAT
    }
  }
  attr {
    key: "data_format"
    value {
      s: "NCHW"
    }
  }
  attr {
    key: "dilations"
    value {
      list {
        i: 1
        i: 1
        i: 1
        i: 1
      }
    }
  }
  attr {
    key: "padding"
    value {
      s: "SAME"
    }
  }
  attr {
    key: "strides"
    value {
      list {
        i: 1
        i: 1
        i: 1
        i: 1
      }
    }
  }
  attr {
    key: "use_cudnn_on_gpu"
    value {
      b: true
    }
  }
}
node {
  name: "v/cg/resnet_v11/conv5/batchnorm5/gamma/Initializer/ones"
  op: "Const"
  attr {
    key: "_class"
    value {
      list {
        s: "loc:@v/cg/resnet_v11/conv5/batchnorm5/gamma"
      }
    }
  }
  attr {
    key: "dtype"
    value {
      type: DT_FLOAT
    }
  }
  attr {
    key: "value"
    value {
      tensor {
        dtype: DT_FLOAT
        tensor_shape {
          dim {
            size: 64
          }
        }
        float_val: 1.0
      }
    }
  }
}
node {
  name: "v/cg/resnet_v11/conv5/batchnorm5/gamma"
  op: "VariableV2"
  device: "/job:localhost/replica:0/task:0/device:NGRAPH:0"
  attr {
    key: "_class"
    value {
      list {
        s: "loc:@v/cg/resnet_v11/conv5/batchnorm5/gamma"
      }
    }
  }
  attr {
    key: "container"
    value {
      s: ""
    }
  }
  attr {
    key: "dtype"
    value {
      type: DT_FLOAT
    }
  }
  attr {
    key: "shape"
    value {
      shape {
        dim {
          size: 64
        }
      }
    }
  }
  attr {
    key: "shared_name"
    value {
      s: ""
    }
  }
}
node {
  name: "v/cg/resnet_v11/conv5/batchnorm5/gamma/Assign"
  op: "Assign"
  input: "v/cg/resnet_v11/conv5/batchnorm5/gamma"
  input: "v/cg/resnet_v11/conv5/batchnorm5/gamma/Initializer/ones"
  device: "/job:localhost/replica:0/task:0/device:NGRAPH:0"
  attr {
    key: "T"
    value {
      type: DT_FLOAT
    }
  }
  attr {
    key: "_class"
    value {
      list {
        s: "loc:@v/cg/resnet_v11/conv5/batchnorm5/gamma"
      }
    }
  }
  attr {
    key: "use_locking"
    value {
      b: true
    }
  }
  attr {
    key: "validate_shape"
    value {
      b: true
    }
  }
}
node {
  name: "v/cg/resnet_v11/conv5/batchnorm5/gamma/read"
  op: "Identity"
  input: "v/cg/resnet_v11/conv5/batchnorm5/gamma"
  device: "/job:localhost/replica:0/task:0/device:NGRAPH:0"
  attr {
    key: "T"
    value {
      type: DT_FLOAT
    }
  }
  attr {
    key: "_class"
    value {
      list {
        s: "loc:@v/cg/resnet_v11/conv5/batchnorm5/gamma"
      }
    }
  }
}
node {
  name: "v/cg/resnet_v11/conv5/batchnorm5/beta/Initializer/zeros"
  op: "Const"
  attr {
    key: "_class"
    value {
      list {
        s: "loc:@v/cg/resnet_v11/conv5/batchnorm5/beta"
      }
    }
  }
  attr {
    key: "dtype"
    value {
      type: DT_FLOAT
    }
  }
  attr {
    key: "value"
    value {
      tensor {
        dtype: DT_FLOAT
        tensor_shape {
          dim {
            size: 64
          }
        }
        float_val: 0.0
      }
    }
  }
}
node {
  name: "v/cg/resnet_v11/conv5/batchnorm5/beta"
  op: "VariableV2"
  device: "/job:localhost/replica:0/task:0/device:NGRAPH:0"
  attr {
    key: "_class"
    value {
      list {
        s: "loc:@v/cg/resnet_v11/conv5/batchnorm5/beta"
      }
    }
  }
  attr {
    key: "container"
    value {
      s: ""
    }
  }
  attr {
    key: "dtype"
    value {
      type: DT_FLOAT
    }
  }
  attr {
    key: "shape"
    value {
      shape {
        dim {
          size: 64
        }
      }
    }
  }
  attr {
    key: "shared_name"
    value {
      s: ""
    }
  }
}
node {
  name: "v/cg/resnet_v11/conv5/batchnorm5/beta/Assign"
  op: "Assign"
  input: "v/cg/resnet_v11/conv5/batchnorm5/beta"
  input: "v/cg/resnet_v11/conv5/batchnorm5/beta/Initializer/zeros"
  device: "/job:localhost/replica:0/task:0/device:NGRAPH:0"
  attr {
    key: "T"
    value {
      type: DT_FLOAT
    }
  }
  attr {
    key: "_class"
    value {
      list {
        s: "loc:@v/cg/resnet_v11/conv5/batchnorm5/beta"
      }
    }
  }
  attr {
    key: "use_locking"
    value {
      b: true
    }
  }
  attr {
    key: "validate_shape"
    value {
      b: true
    }
  }
}
node {
  name: "v/cg/resnet_v11/conv5/batchnorm5/beta/read"
  op: "Identity"
  input: "v/cg/resnet_v11/conv5/batchnorm5/beta"
  device: "/job:localhost/replica:0/task:0/device:NGRAPH:0"
  attr {
    key: "T"
    value {
      type: DT_FLOAT
    }
  }
  attr {
    key: "_class"
    value {
      list {
        s: "loc:@v/cg/resnet_v11/conv5/batchnorm5/beta"
      }
    }
  }
}
node {
  name: "v/cg/resnet_v11/conv5/batchnorm5/moving_mean/Initializer/zeros"
  op: "Const"
  attr {
    key: "_class"
    value {
      list {
        s: "loc:@v/cg/resnet_v11/conv5/batchnorm5/moving_mean"
      }
    }
  }
  attr {
    key: "dtype"
    value {
      type: DT_FLOAT
    }
  }
  attr {
    key: "value"
    value {
      tensor {
        dtype: DT_FLOAT
        tensor_shape {
          dim {
            size: 64
          }
        }
        float_val: 0.0
      }
    }
  }
}
node {
  name: "v/cg/resnet_v11/conv5/batchnorm5/moving_mean"
  op: "VariableV2"
  device: "/job:localhost/replica:0/task:0/device:NGRAPH:0"
  attr {
    key: "_class"
    value {
      list {
        s: "loc:@v/cg/resnet_v11/conv5/batchnorm5/moving_mean"
      }
    }
  }
  attr {
    key: "container"
    value {
      s: ""
    }
  }
  attr {
    key: "dtype"
    value {
      type: DT_FLOAT
    }
  }
  attr {
    key: "shape"
    value {
      shape {
        dim {
          size: 64
        }
      }
    }
  }
  attr {
    key: "shared_name"
    value {
      s: ""
    }
  }
}
node {
  name: "v/cg/resnet_v11/conv5/batchnorm5/moving_mean/Assign"
  op: "Assign"
  input: "v/cg/resnet_v11/conv5/batchnorm5/moving_mean"
  input: "v/cg/resnet_v11/conv5/batchnorm5/moving_mean/Initializer/zeros"
  device: "/job:localhost/replica:0/task:0/device:NGRAPH:0"
  attr {
    key: "T"
    value {
      type: DT_FLOAT
    }
  }
  attr {
    key: "_class"
    value {
      list {
        s: "loc:@v/cg/resnet_v11/conv5/batchnorm5/moving_mean"
      }
    }
  }
  attr {
    key: "use_locking"
    value {
      b: true
    }
  }
  attr {
    key: "validate_shape"
    value {
      b: true
    }
  }
}
node {
  name: "v/cg/resnet_v11/conv5/batchnorm5/moving_mean/read"
  op: "Identity"
  input: "v/cg/resnet_v11/conv5/batchnorm5/moving_mean"
  device: "/job:localhost/replica:0/task:0/device:NGRAPH:0"
  attr {
    key: "T"
    value {
      type: DT_FLOAT
    }
  }
  attr {
    key: "_class"
    value {
      list {
        s: "loc:@v/cg/resnet_v11/conv5/batchnorm5/moving_mean"
      }
    }
  }
}
node {
  name: "v/cg/resnet_v11/conv5/batchnorm5/moving_variance/Initializer/ones"
  op: "Const"
  attr {
    key: "_class"
    value {
      list {
        s: "loc:@v/cg/resnet_v11/conv5/batchnorm5/moving_variance"
      }
    }
  }
  attr {
    key: "dtype"
    value {
      type: DT_FLOAT
    }
  }
  attr {
    key: "value"
    value {
      tensor {
        dtype: DT_FLOAT
        tensor_shape {
          dim {
            size: 64
          }
        }
        float_val: 1.0
      }
    }
  }
}
node {
  name: "v/cg/resnet_v11/conv5/batchnorm5/moving_variance"
  op: "VariableV2"
  device: "/job:localhost/replica:0/task:0/device:NGRAPH:0"
  attr {
    key: "_class"
    value {
      list {
        s: "loc:@v/cg/resnet_v11/conv5/batchnorm5/moving_variance"
      }
    }
  }
  attr {
    key: "container"
    value {
      s: ""
    }
  }
  attr {
    key: "dtype"
    value {
      type: DT_FLOAT
    }
  }
  attr {
    key: "shape"
    value {
      shape {
        dim {
          size: 64
        }
      }
    }
  }
  attr {
    key: "shared_name"
    value {
      s: ""
    }
  }
}
node {
  name: "v/cg/resnet_v11/conv5/batchnorm5/moving_variance/Assign"
  op: "Assign"
  input: "v/cg/resnet_v11/conv5/batchnorm5/moving_variance"
  input: "v/cg/resnet_v11/conv5/batchnorm5/moving_variance/Initializer/ones"
  device: "/job:localhost/replica:0/task:0/device:NGRAPH:0"
  attr {
    key: "T"
    value {
      type: DT_FLOAT
    }
  }
  attr {
    key: "_class"
    value {
      list {
        s: "loc:@v/cg/resnet_v11/conv5/batchnorm5/moving_variance"
      }
    }
  }
  attr {
    key: "use_locking"
    value {
      b: true
    }
  }
  attr {
    key: "validate_shape"
    value {
      b: true
    }
  }
}
node {
  name: "v/cg/resnet_v11/conv5/batchnorm5/moving_variance/read"
  op: "Identity"
  input: "v/cg/resnet_v11/conv5/batchnorm5/moving_variance"
  device: "/job:localhost/replica:0/task:0/device:NGRAPH:0"
  attr {
    key: "T"
    value {
      type: DT_FLOAT
    }
  }
  attr {
    key: "_class"
    value {
      list {
        s: "loc:@v/cg/resnet_v11/conv5/batchnorm5/moving_variance"
      }
    }
  }
}
node {
  name: "v/tower_0/cg/resnet_v11/conv5/batchnorm5/FusedBatchNorm"
  op: "FusedBatchNorm"
  input: "v/tower_0/cg/resnet_v11/conv5/conv2d/Conv2D"
  input: "v/cg/resnet_v11/conv5/batchnorm5/gamma/read"
  input: "v/cg/resnet_v11/conv5/batchnorm5/beta/read"
  input: "v/cg/resnet_v11/conv5/batchnorm5/moving_mean/read"
  input: "v/cg/resnet_v11/conv5/batchnorm5/moving_variance/read"
  device: "/job:localhost/replica:0/task:0/device:NGRAPH:0"
  attr {
    key: "T"
    value {
      type: DT_FLOAT
    }
  }
  attr {
    key: "data_format"
    value {
      s: "NCHW"
    }
  }
  attr {
    key: "epsilon"
    value {
      f: 1.00099996416e-05
    }
  }
  attr {
    key: "is_training"
    value {
      b: false
    }
  }
}
node {
  name: "v/tower_0/cg/resnet_v11/conv5/batchnorm5/Const"
  op: "Const"
  device: "/job:localhost/replica:0/task:0/device:NGRAPH:0"
  attr {
    key: "dtype"
    value {
      type: DT_FLOAT
    }
  }
  attr {
    key: "value"
    value {
      tensor {
        dtype: DT_FLOAT
        tensor_shape {
        }
        float_val: 0.899999976158
      }
    }
  }
}
node {
  name: "v/tower_0/cg/resnet_v11/conv5/Relu"
  op: "Relu"
  input: "v/tower_0/cg/resnet_v11/conv5/batchnorm5/FusedBatchNorm"
  device: "/job:localhost/replica:0/task:0/device:NGRAPH:0"
  attr {
    key: "T"
    value {
      type: DT_FLOAT
    }
  }
}
node {
  name: "v/cg/resnet_v11/conv6/conv2d/kernel/Initializer/random_uniform/shape"
  op: "Const"
  attr {
    key: "_class"
    value {
      list {
        s: "loc:@v/cg/resnet_v11/conv6/conv2d/kernel"
      }
    }
  }
  attr {
    key: "dtype"
    value {
      type: DT_INT32
    }
  }
  attr {
    key: "value"
    value {
      tensor {
        dtype: DT_INT32
        tensor_shape {
          dim {
            size: 4
          }
        }
        tensor_content: "\003\000\000\000\003\000\000\000@\000\000\000@\000\000\000"
      }
    }
  }
}
node {
  name: "v/cg/resnet_v11/conv6/conv2d/kernel/Initializer/random_uniform/min"
  op: "Const"
  attr {
    key: "_class"
    value {
      list {
        s: "loc:@v/cg/resnet_v11/conv6/conv2d/kernel"
      }
    }
  }
  attr {
    key: "dtype"
    value {
      type: DT_FLOAT
    }
  }
  attr {
    key: "value"
    value {
      tensor {
        dtype: DT_FLOAT
        tensor_shape {
        }
        float_val: -0.0721687823534
      }
    }
  }
}
node {
  name: "v/cg/resnet_v11/conv6/conv2d/kernel/Initializer/random_uniform/max"
  op: "Const"
  attr {
    key: "_class"
    value {
      list {
        s: "loc:@v/cg/resnet_v11/conv6/conv2d/kernel"
      }
    }
  }
  attr {
    key: "dtype"
    value {
      type: DT_FLOAT
    }
  }
  attr {
    key: "value"
    value {
      tensor {
        dtype: DT_FLOAT
        tensor_shape {
        }
        float_val: 0.0721687823534
      }
    }
  }
}
node {
  name: "v/cg/resnet_v11/conv6/conv2d/kernel/Initializer/random_uniform/RandomUniform"
  op: "RandomUniform"
  input: "v/cg/resnet_v11/conv6/conv2d/kernel/Initializer/random_uniform/shape"
  attr {
    key: "T"
    value {
      type: DT_INT32
    }
  }
  attr {
    key: "_class"
    value {
      list {
        s: "loc:@v/cg/resnet_v11/conv6/conv2d/kernel"
      }
    }
  }
  attr {
    key: "dtype"
    value {
      type: DT_FLOAT
    }
  }
  attr {
    key: "seed"
    value {
      i: 1234
    }
  }
  attr {
    key: "seed2"
    value {
      i: 229
    }
  }
}
node {
  name: "v/cg/resnet_v11/conv6/conv2d/kernel/Initializer/random_uniform/sub"
  op: "Sub"
  input: "v/cg/resnet_v11/conv6/conv2d/kernel/Initializer/random_uniform/max"
  input: "v/cg/resnet_v11/conv6/conv2d/kernel/Initializer/random_uniform/min"
  attr {
    key: "T"
    value {
      type: DT_FLOAT
    }
  }
  attr {
    key: "_class"
    value {
      list {
        s: "loc:@v/cg/resnet_v11/conv6/conv2d/kernel"
      }
    }
  }
}
node {
  name: "v/cg/resnet_v11/conv6/conv2d/kernel/Initializer/random_uniform/mul"
  op: "Mul"
  input: "v/cg/resnet_v11/conv6/conv2d/kernel/Initializer/random_uniform/RandomUniform"
  input: "v/cg/resnet_v11/conv6/conv2d/kernel/Initializer/random_uniform/sub"
  attr {
    key: "T"
    value {
      type: DT_FLOAT
    }
  }
  attr {
    key: "_class"
    value {
      list {
        s: "loc:@v/cg/resnet_v11/conv6/conv2d/kernel"
      }
    }
  }
}
node {
  name: "v/cg/resnet_v11/conv6/conv2d/kernel/Initializer/random_uniform"
  op: "Add"
  input: "v/cg/resnet_v11/conv6/conv2d/kernel/Initializer/random_uniform/mul"
  input: "v/cg/resnet_v11/conv6/conv2d/kernel/Initializer/random_uniform/min"
  attr {
    key: "T"
    value {
      type: DT_FLOAT
    }
  }
  attr {
    key: "_class"
    value {
      list {
        s: "loc:@v/cg/resnet_v11/conv6/conv2d/kernel"
      }
    }
  }
}
node {
  name: "v/cg/resnet_v11/conv6/conv2d/kernel"
  op: "VariableV2"
  device: "/job:localhost/replica:0/task:0/device:NGRAPH:0"
  attr {
    key: "_class"
    value {
      list {
        s: "loc:@v/cg/resnet_v11/conv6/conv2d/kernel"
      }
    }
  }
  attr {
    key: "container"
    value {
      s: ""
    }
  }
  attr {
    key: "dtype"
    value {
      type: DT_FLOAT
    }
  }
  attr {
    key: "shape"
    value {
      shape {
        dim {
          size: 3
        }
        dim {
          size: 3
        }
        dim {
          size: 64
        }
        dim {
          size: 64
        }
      }
    }
  }
  attr {
    key: "shared_name"
    value {
      s: ""
    }
  }
}
node {
  name: "v/cg/resnet_v11/conv6/conv2d/kernel/Assign"
  op: "Assign"
  input: "v/cg/resnet_v11/conv6/conv2d/kernel"
  input: "v/cg/resnet_v11/conv6/conv2d/kernel/Initializer/random_uniform"
  device: "/job:localhost/replica:0/task:0/device:NGRAPH:0"
  attr {
    key: "T"
    value {
      type: DT_FLOAT
    }
  }
  attr {
    key: "_class"
    value {
      list {
        s: "loc:@v/cg/resnet_v11/conv6/conv2d/kernel"
      }
    }
  }
  attr {
    key: "use_locking"
    value {
      b: true
    }
  }
  attr {
    key: "validate_shape"
    value {
      b: true
    }
  }
}
node {
  name: "v/cg/resnet_v11/conv6/conv2d/kernel/read"
  op: "Identity"
  input: "v/cg/resnet_v11/conv6/conv2d/kernel"
  device: "/job:localhost/replica:0/task:0/device:NGRAPH:0"
  attr {
    key: "T"
    value {
      type: DT_FLOAT
    }
  }
  attr {
    key: "_class"
    value {
      list {
        s: "loc:@v/cg/resnet_v11/conv6/conv2d/kernel"
      }
    }
  }
}
node {
  name: "v/tower_0/cg/resnet_v11/conv6/conv2d/dilation_rate"
  op: "Const"
  device: "/job:localhost/replica:0/task:0/device:NGRAPH:0"
  attr {
    key: "dtype"
    value {
      type: DT_INT32
    }
  }
  attr {
    key: "value"
    value {
      tensor {
        dtype: DT_INT32
        tensor_shape {
          dim {
            size: 2
          }
        }
        tensor_content: "\001\000\000\000\001\000\000\000"
      }
    }
  }
}
node {
  name: "v/tower_0/cg/resnet_v11/conv6/conv2d/Conv2D"
  op: "Conv2D"
  input: "v/tower_0/cg/resnet_v11/conv5/Relu"
  input: "v/cg/resnet_v11/conv6/conv2d/kernel/read"
  device: "/job:localhost/replica:0/task:0/device:NGRAPH:0"
  attr {
    key: "T"
    value {
      type: DT_FLOAT
    }
  }
  attr {
    key: "data_format"
    value {
      s: "NCHW"
    }
  }
  attr {
    key: "dilations"
    value {
      list {
        i: 1
        i: 1
        i: 1
        i: 1
      }
    }
  }
  attr {
    key: "padding"
    value {
      s: "SAME"
    }
  }
  attr {
    key: "strides"
    value {
      list {
        i: 1
        i: 1
        i: 1
        i: 1
      }
    }
  }
  attr {
    key: "use_cudnn_on_gpu"
    value {
      b: true
    }
  }
}
node {
  name: "v/cg/resnet_v11/conv6/batchnorm6/gamma/Initializer/ones"
  op: "Const"
  attr {
    key: "_class"
    value {
      list {
        s: "loc:@v/cg/resnet_v11/conv6/batchnorm6/gamma"
      }
    }
  }
  attr {
    key: "dtype"
    value {
      type: DT_FLOAT
    }
  }
  attr {
    key: "value"
    value {
      tensor {
        dtype: DT_FLOAT
        tensor_shape {
          dim {
            size: 64
          }
        }
        float_val: 1.0
      }
    }
  }
}
node {
  name: "v/cg/resnet_v11/conv6/batchnorm6/gamma"
  op: "VariableV2"
  device: "/job:localhost/replica:0/task:0/device:NGRAPH:0"
  attr {
    key: "_class"
    value {
      list {
        s: "loc:@v/cg/resnet_v11/conv6/batchnorm6/gamma"
      }
    }
  }
  attr {
    key: "container"
    value {
      s: ""
    }
  }
  attr {
    key: "dtype"
    value {
      type: DT_FLOAT
    }
  }
  attr {
    key: "shape"
    value {
      shape {
        dim {
          size: 64
        }
      }
    }
  }
  attr {
    key: "shared_name"
    value {
      s: ""
    }
  }
}
node {
  name: "v/cg/resnet_v11/conv6/batchnorm6/gamma/Assign"
  op: "Assign"
  input: "v/cg/resnet_v11/conv6/batchnorm6/gamma"
  input: "v/cg/resnet_v11/conv6/batchnorm6/gamma/Initializer/ones"
  device: "/job:localhost/replica:0/task:0/device:NGRAPH:0"
  attr {
    key: "T"
    value {
      type: DT_FLOAT
    }
  }
  attr {
    key: "_class"
    value {
      list {
        s: "loc:@v/cg/resnet_v11/conv6/batchnorm6/gamma"
      }
    }
  }
  attr {
    key: "use_locking"
    value {
      b: true
    }
  }
  attr {
    key: "validate_shape"
    value {
      b: true
    }
  }
}
node {
  name: "v/cg/resnet_v11/conv6/batchnorm6/gamma/read"
  op: "Identity"
  input: "v/cg/resnet_v11/conv6/batchnorm6/gamma"
  device: "/job:localhost/replica:0/task:0/device:NGRAPH:0"
  attr {
    key: "T"
    value {
      type: DT_FLOAT
    }
  }
  attr {
    key: "_class"
    value {
      list {
        s: "loc:@v/cg/resnet_v11/conv6/batchnorm6/gamma"
      }
    }
  }
}
node {
  name: "v/cg/resnet_v11/conv6/batchnorm6/beta/Initializer/zeros"
  op: "Const"
  attr {
    key: "_class"
    value {
      list {
        s: "loc:@v/cg/resnet_v11/conv6/batchnorm6/beta"
      }
    }
  }
  attr {
    key: "dtype"
    value {
      type: DT_FLOAT
    }
  }
  attr {
    key: "value"
    value {
      tensor {
        dtype: DT_FLOAT
        tensor_shape {
          dim {
            size: 64
          }
        }
        float_val: 0.0
      }
    }
  }
}
node {
  name: "v/cg/resnet_v11/conv6/batchnorm6/beta"
  op: "VariableV2"
  device: "/job:localhost/replica:0/task:0/device:NGRAPH:0"
  attr {
    key: "_class"
    value {
      list {
        s: "loc:@v/cg/resnet_v11/conv6/batchnorm6/beta"
      }
    }
  }
  attr {
    key: "container"
    value {
      s: ""
    }
  }
  attr {
    key: "dtype"
    value {
      type: DT_FLOAT
    }
  }
  attr {
    key: "shape"
    value {
      shape {
        dim {
          size: 64
        }
      }
    }
  }
  attr {
    key: "shared_name"
    value {
      s: ""
    }
  }
}
node {
  name: "v/cg/resnet_v11/conv6/batchnorm6/beta/Assign"
  op: "Assign"
  input: "v/cg/resnet_v11/conv6/batchnorm6/beta"
  input: "v/cg/resnet_v11/conv6/batchnorm6/beta/Initializer/zeros"
  device: "/job:localhost/replica:0/task:0/device:NGRAPH:0"
  attr {
    key: "T"
    value {
      type: DT_FLOAT
    }
  }
  attr {
    key: "_class"
    value {
      list {
        s: "loc:@v/cg/resnet_v11/conv6/batchnorm6/beta"
      }
    }
  }
  attr {
    key: "use_locking"
    value {
      b: true
    }
  }
  attr {
    key: "validate_shape"
    value {
      b: true
    }
  }
}
node {
  name: "v/cg/resnet_v11/conv6/batchnorm6/beta/read"
  op: "Identity"
  input: "v/cg/resnet_v11/conv6/batchnorm6/beta"
  device: "/job:localhost/replica:0/task:0/device:NGRAPH:0"
  attr {
    key: "T"
    value {
      type: DT_FLOAT
    }
  }
  attr {
    key: "_class"
    value {
      list {
        s: "loc:@v/cg/resnet_v11/conv6/batchnorm6/beta"
      }
    }
  }
}
node {
  name: "v/cg/resnet_v11/conv6/batchnorm6/moving_mean/Initializer/zeros"
  op: "Const"
  attr {
    key: "_class"
    value {
      list {
        s: "loc:@v/cg/resnet_v11/conv6/batchnorm6/moving_mean"
      }
    }
  }
  attr {
    key: "dtype"
    value {
      type: DT_FLOAT
    }
  }
  attr {
    key: "value"
    value {
      tensor {
        dtype: DT_FLOAT
        tensor_shape {
          dim {
            size: 64
          }
        }
        float_val: 0.0
      }
    }
  }
}
node {
  name: "v/cg/resnet_v11/conv6/batchnorm6/moving_mean"
  op: "VariableV2"
  device: "/job:localhost/replica:0/task:0/device:NGRAPH:0"
  attr {
    key: "_class"
    value {
      list {
        s: "loc:@v/cg/resnet_v11/conv6/batchnorm6/moving_mean"
      }
    }
  }
  attr {
    key: "container"
    value {
      s: ""
    }
  }
  attr {
    key: "dtype"
    value {
      type: DT_FLOAT
    }
  }
  attr {
    key: "shape"
    value {
      shape {
        dim {
          size: 64
        }
      }
    }
  }
  attr {
    key: "shared_name"
    value {
      s: ""
    }
  }
}
node {
  name: "v/cg/resnet_v11/conv6/batchnorm6/moving_mean/Assign"
  op: "Assign"
  input: "v/cg/resnet_v11/conv6/batchnorm6/moving_mean"
  input: "v/cg/resnet_v11/conv6/batchnorm6/moving_mean/Initializer/zeros"
  device: "/job:localhost/replica:0/task:0/device:NGRAPH:0"
  attr {
    key: "T"
    value {
      type: DT_FLOAT
    }
  }
  attr {
    key: "_class"
    value {
      list {
        s: "loc:@v/cg/resnet_v11/conv6/batchnorm6/moving_mean"
      }
    }
  }
  attr {
    key: "use_locking"
    value {
      b: true
    }
  }
  attr {
    key: "validate_shape"
    value {
      b: true
    }
  }
}
node {
  name: "v/cg/resnet_v11/conv6/batchnorm6/moving_mean/read"
  op: "Identity"
  input: "v/cg/resnet_v11/conv6/batchnorm6/moving_mean"
  device: "/job:localhost/replica:0/task:0/device:NGRAPH:0"
  attr {
    key: "T"
    value {
      type: DT_FLOAT
    }
  }
  attr {
    key: "_class"
    value {
      list {
        s: "loc:@v/cg/resnet_v11/conv6/batchnorm6/moving_mean"
      }
    }
  }
}
node {
  name: "v/cg/resnet_v11/conv6/batchnorm6/moving_variance/Initializer/ones"
  op: "Const"
  attr {
    key: "_class"
    value {
      list {
        s: "loc:@v/cg/resnet_v11/conv6/batchnorm6/moving_variance"
      }
    }
  }
  attr {
    key: "dtype"
    value {
      type: DT_FLOAT
    }
  }
  attr {
    key: "value"
    value {
      tensor {
        dtype: DT_FLOAT
        tensor_shape {
          dim {
            size: 64
          }
        }
        float_val: 1.0
      }
    }
  }
}
node {
  name: "v/cg/resnet_v11/conv6/batchnorm6/moving_variance"
  op: "VariableV2"
  device: "/job:localhost/replica:0/task:0/device:NGRAPH:0"
  attr {
    key: "_class"
    value {
      list {
        s: "loc:@v/cg/resnet_v11/conv6/batchnorm6/moving_variance"
      }
    }
  }
  attr {
    key: "container"
    value {
      s: ""
    }
  }
  attr {
    key: "dtype"
    value {
      type: DT_FLOAT
    }
  }
  attr {
    key: "shape"
    value {
      shape {
        dim {
          size: 64
        }
      }
    }
  }
  attr {
    key: "shared_name"
    value {
      s: ""
    }
  }
}
node {
  name: "v/cg/resnet_v11/conv6/batchnorm6/moving_variance/Assign"
  op: "Assign"
  input: "v/cg/resnet_v11/conv6/batchnorm6/moving_variance"
  input: "v/cg/resnet_v11/conv6/batchnorm6/moving_variance/Initializer/ones"
  device: "/job:localhost/replica:0/task:0/device:NGRAPH:0"
  attr {
    key: "T"
    value {
      type: DT_FLOAT
    }
  }
  attr {
    key: "_class"
    value {
      list {
        s: "loc:@v/cg/resnet_v11/conv6/batchnorm6/moving_variance"
      }
    }
  }
  attr {
    key: "use_locking"
    value {
      b: true
    }
  }
  attr {
    key: "validate_shape"
    value {
      b: true
    }
  }
}
node {
  name: "v/cg/resnet_v11/conv6/batchnorm6/moving_variance/read"
  op: "Identity"
  input: "v/cg/resnet_v11/conv6/batchnorm6/moving_variance"
  device: "/job:localhost/replica:0/task:0/device:NGRAPH:0"
  attr {
    key: "T"
    value {
      type: DT_FLOAT
    }
  }
  attr {
    key: "_class"
    value {
      list {
        s: "loc:@v/cg/resnet_v11/conv6/batchnorm6/moving_variance"
      }
    }
  }
}
node {
  name: "v/tower_0/cg/resnet_v11/conv6/batchnorm6/FusedBatchNorm"
  op: "FusedBatchNorm"
  input: "v/tower_0/cg/resnet_v11/conv6/conv2d/Conv2D"
  input: "v/cg/resnet_v11/conv6/batchnorm6/gamma/read"
  input: "v/cg/resnet_v11/conv6/batchnorm6/beta/read"
  input: "v/cg/resnet_v11/conv6/batchnorm6/moving_mean/read"
  input: "v/cg/resnet_v11/conv6/batchnorm6/moving_variance/read"
  device: "/job:localhost/replica:0/task:0/device:NGRAPH:0"
  attr {
    key: "T"
    value {
      type: DT_FLOAT
    }
  }
  attr {
    key: "data_format"
    value {
      s: "NCHW"
    }
  }
  attr {
    key: "epsilon"
    value {
      f: 1.00099996416e-05
    }
  }
  attr {
    key: "is_training"
    value {
      b: false
    }
  }
}
node {
  name: "v/tower_0/cg/resnet_v11/conv6/batchnorm6/Const"
  op: "Const"
  device: "/job:localhost/replica:0/task:0/device:NGRAPH:0"
  attr {
    key: "dtype"
    value {
      type: DT_FLOAT
    }
  }
  attr {
    key: "value"
    value {
      tensor {
        dtype: DT_FLOAT
        tensor_shape {
        }
        float_val: 0.899999976158
      }
    }
  }
}
node {
  name: "v/tower_0/cg/resnet_v11/conv6/Relu"
  op: "Relu"
  input: "v/tower_0/cg/resnet_v11/conv6/batchnorm6/FusedBatchNorm"
  device: "/job:localhost/replica:0/task:0/device:NGRAPH:0"
  attr {
    key: "T"
    value {
      type: DT_FLOAT
    }
  }
}
node {
  name: "v/cg/resnet_v11/conv7/conv2d/kernel/Initializer/random_uniform/shape"
  op: "Const"
  attr {
    key: "_class"
    value {
      list {
        s: "loc:@v/cg/resnet_v11/conv7/conv2d/kernel"
      }
    }
  }
  attr {
    key: "dtype"
    value {
      type: DT_INT32
    }
  }
  attr {
    key: "value"
    value {
      tensor {
        dtype: DT_INT32
        tensor_shape {
          dim {
            size: 4
          }
        }
        tensor_content: "\001\000\000\000\001\000\000\000@\000\000\000\000\001\000\000"
      }
    }
  }
}
node {
  name: "v/cg/resnet_v11/conv7/conv2d/kernel/Initializer/random_uniform/min"
  op: "Const"
  attr {
    key: "_class"
    value {
      list {
        s: "loc:@v/cg/resnet_v11/conv7/conv2d/kernel"
      }
    }
  }
  attr {
    key: "dtype"
    value {
      type: DT_FLOAT
    }
  }
  attr {
    key: "value"
    value {
      tensor {
        dtype: DT_FLOAT
        tensor_shape {
        }
        float_val: -0.136930644512
      }
    }
  }
}
node {
  name: "v/cg/resnet_v11/conv7/conv2d/kernel/Initializer/random_uniform/max"
  op: "Const"
  attr {
    key: "_class"
    value {
      list {
        s: "loc:@v/cg/resnet_v11/conv7/conv2d/kernel"
      }
    }
  }
  attr {
    key: "dtype"
    value {
      type: DT_FLOAT
    }
  }
  attr {
    key: "value"
    value {
      tensor {
        dtype: DT_FLOAT
        tensor_shape {
        }
        float_val: 0.136930644512
      }
    }
  }
}
node {
  name: "v/cg/resnet_v11/conv7/conv2d/kernel/Initializer/random_uniform/RandomUniform"
  op: "RandomUniform"
  input: "v/cg/resnet_v11/conv7/conv2d/kernel/Initializer/random_uniform/shape"
  attr {
    key: "T"
    value {
      type: DT_INT32
    }
  }
  attr {
    key: "_class"
    value {
      list {
        s: "loc:@v/cg/resnet_v11/conv7/conv2d/kernel"
      }
    }
  }
  attr {
    key: "dtype"
    value {
      type: DT_FLOAT
    }
  }
  attr {
    key: "seed"
    value {
      i: 1234
    }
  }
  attr {
    key: "seed2"
    value {
      i: 260
    }
  }
}
node {
  name: "v/cg/resnet_v11/conv7/conv2d/kernel/Initializer/random_uniform/sub"
  op: "Sub"
  input: "v/cg/resnet_v11/conv7/conv2d/kernel/Initializer/random_uniform/max"
  input: "v/cg/resnet_v11/conv7/conv2d/kernel/Initializer/random_uniform/min"
  attr {
    key: "T"
    value {
      type: DT_FLOAT
    }
  }
  attr {
    key: "_class"
    value {
      list {
        s: "loc:@v/cg/resnet_v11/conv7/conv2d/kernel"
      }
    }
  }
}
node {
  name: "v/cg/resnet_v11/conv7/conv2d/kernel/Initializer/random_uniform/mul"
  op: "Mul"
  input: "v/cg/resnet_v11/conv7/conv2d/kernel/Initializer/random_uniform/RandomUniform"
  input: "v/cg/resnet_v11/conv7/conv2d/kernel/Initializer/random_uniform/sub"
  attr {
    key: "T"
    value {
      type: DT_FLOAT
    }
  }
  attr {
    key: "_class"
    value {
      list {
        s: "loc:@v/cg/resnet_v11/conv7/conv2d/kernel"
      }
    }
  }
}
node {
  name: "v/cg/resnet_v11/conv7/conv2d/kernel/Initializer/random_uniform"
  op: "Add"
  input: "v/cg/resnet_v11/conv7/conv2d/kernel/Initializer/random_uniform/mul"
  input: "v/cg/resnet_v11/conv7/conv2d/kernel/Initializer/random_uniform/min"
  attr {
    key: "T"
    value {
      type: DT_FLOAT
    }
  }
  attr {
    key: "_class"
    value {
      list {
        s: "loc:@v/cg/resnet_v11/conv7/conv2d/kernel"
      }
    }
  }
}
node {
  name: "v/cg/resnet_v11/conv7/conv2d/kernel"
  op: "VariableV2"
  device: "/job:localhost/replica:0/task:0/device:NGRAPH:0"
  attr {
    key: "_class"
    value {
      list {
        s: "loc:@v/cg/resnet_v11/conv7/conv2d/kernel"
      }
    }
  }
  attr {
    key: "container"
    value {
      s: ""
    }
  }
  attr {
    key: "dtype"
    value {
      type: DT_FLOAT
    }
  }
  attr {
    key: "shape"
    value {
      shape {
        dim {
          size: 1
        }
        dim {
          size: 1
        }
        dim {
          size: 64
        }
        dim {
          size: 256
        }
      }
    }
  }
  attr {
    key: "shared_name"
    value {
      s: ""
    }
  }
}
node {
  name: "v/cg/resnet_v11/conv7/conv2d/kernel/Assign"
  op: "Assign"
  input: "v/cg/resnet_v11/conv7/conv2d/kernel"
  input: "v/cg/resnet_v11/conv7/conv2d/kernel/Initializer/random_uniform"
  device: "/job:localhost/replica:0/task:0/device:NGRAPH:0"
  attr {
    key: "T"
    value {
      type: DT_FLOAT
    }
  }
  attr {
    key: "_class"
    value {
      list {
        s: "loc:@v/cg/resnet_v11/conv7/conv2d/kernel"
      }
    }
  }
  attr {
    key: "use_locking"
    value {
      b: true
    }
  }
  attr {
    key: "validate_shape"
    value {
      b: true
    }
  }
}
node {
  name: "v/cg/resnet_v11/conv7/conv2d/kernel/read"
  op: "Identity"
  input: "v/cg/resnet_v11/conv7/conv2d/kernel"
  device: "/job:localhost/replica:0/task:0/device:NGRAPH:0"
  attr {
    key: "T"
    value {
      type: DT_FLOAT
    }
  }
  attr {
    key: "_class"
    value {
      list {
        s: "loc:@v/cg/resnet_v11/conv7/conv2d/kernel"
      }
    }
  }
}
node {
  name: "v/tower_0/cg/resnet_v11/conv7/conv2d/dilation_rate"
  op: "Const"
  device: "/job:localhost/replica:0/task:0/device:NGRAPH:0"
  attr {
    key: "dtype"
    value {
      type: DT_INT32
    }
  }
  attr {
    key: "value"
    value {
      tensor {
        dtype: DT_INT32
        tensor_shape {
          dim {
            size: 2
          }
        }
        tensor_content: "\001\000\000\000\001\000\000\000"
      }
    }
  }
}
node {
  name: "v/tower_0/cg/resnet_v11/conv7/conv2d/Conv2D"
  op: "Conv2D"
  input: "v/tower_0/cg/resnet_v11/conv6/Relu"
  input: "v/cg/resnet_v11/conv7/conv2d/kernel/read"
  device: "/job:localhost/replica:0/task:0/device:NGRAPH:0"
  attr {
    key: "T"
    value {
      type: DT_FLOAT
    }
  }
  attr {
    key: "data_format"
    value {
      s: "NCHW"
    }
  }
  attr {
    key: "dilations"
    value {
      list {
        i: 1
        i: 1
        i: 1
        i: 1
      }
    }
  }
  attr {
    key: "padding"
    value {
      s: "SAME"
    }
  }
  attr {
    key: "strides"
    value {
      list {
        i: 1
        i: 1
        i: 1
        i: 1
      }
    }
  }
  attr {
    key: "use_cudnn_on_gpu"
    value {
      b: true
    }
  }
}
node {
  name: "v/cg/resnet_v11/conv7/batchnorm7/gamma/Initializer/ones"
  op: "Const"
  attr {
    key: "_class"
    value {
      list {
        s: "loc:@v/cg/resnet_v11/conv7/batchnorm7/gamma"
      }
    }
  }
  attr {
    key: "dtype"
    value {
      type: DT_FLOAT
    }
  }
  attr {
    key: "value"
    value {
      tensor {
        dtype: DT_FLOAT
        tensor_shape {
          dim {
            size: 256
          }
        }
        float_val: 1.0
      }
    }
  }
}
node {
  name: "v/cg/resnet_v11/conv7/batchnorm7/gamma"
  op: "VariableV2"
  device: "/job:localhost/replica:0/task:0/device:NGRAPH:0"
  attr {
    key: "_class"
    value {
      list {
        s: "loc:@v/cg/resnet_v11/conv7/batchnorm7/gamma"
      }
    }
  }
  attr {
    key: "container"
    value {
      s: ""
    }
  }
  attr {
    key: "dtype"
    value {
      type: DT_FLOAT
    }
  }
  attr {
    key: "shape"
    value {
      shape {
        dim {
          size: 256
        }
      }
    }
  }
  attr {
    key: "shared_name"
    value {
      s: ""
    }
  }
}
node {
  name: "v/cg/resnet_v11/conv7/batchnorm7/gamma/Assign"
  op: "Assign"
  input: "v/cg/resnet_v11/conv7/batchnorm7/gamma"
  input: "v/cg/resnet_v11/conv7/batchnorm7/gamma/Initializer/ones"
  device: "/job:localhost/replica:0/task:0/device:NGRAPH:0"
  attr {
    key: "T"
    value {
      type: DT_FLOAT
    }
  }
  attr {
    key: "_class"
    value {
      list {
        s: "loc:@v/cg/resnet_v11/conv7/batchnorm7/gamma"
      }
    }
  }
  attr {
    key: "use_locking"
    value {
      b: true
    }
  }
  attr {
    key: "validate_shape"
    value {
      b: true
    }
  }
}
node {
  name: "v/cg/resnet_v11/conv7/batchnorm7/gamma/read"
  op: "Identity"
  input: "v/cg/resnet_v11/conv7/batchnorm7/gamma"
  device: "/job:localhost/replica:0/task:0/device:NGRAPH:0"
  attr {
    key: "T"
    value {
      type: DT_FLOAT
    }
  }
  attr {
    key: "_class"
    value {
      list {
        s: "loc:@v/cg/resnet_v11/conv7/batchnorm7/gamma"
      }
    }
  }
}
node {
  name: "v/cg/resnet_v11/conv7/batchnorm7/beta/Initializer/zeros"
  op: "Const"
  attr {
    key: "_class"
    value {
      list {
        s: "loc:@v/cg/resnet_v11/conv7/batchnorm7/beta"
      }
    }
  }
  attr {
    key: "dtype"
    value {
      type: DT_FLOAT
    }
  }
  attr {
    key: "value"
    value {
      tensor {
        dtype: DT_FLOAT
        tensor_shape {
          dim {
            size: 256
          }
        }
        float_val: 0.0
      }
    }
  }
}
node {
  name: "v/cg/resnet_v11/conv7/batchnorm7/beta"
  op: "VariableV2"
  device: "/job:localhost/replica:0/task:0/device:NGRAPH:0"
  attr {
    key: "_class"
    value {
      list {
        s: "loc:@v/cg/resnet_v11/conv7/batchnorm7/beta"
      }
    }
  }
  attr {
    key: "container"
    value {
      s: ""
    }
  }
  attr {
    key: "dtype"
    value {
      type: DT_FLOAT
    }
  }
  attr {
    key: "shape"
    value {
      shape {
        dim {
          size: 256
        }
      }
    }
  }
  attr {
    key: "shared_name"
    value {
      s: ""
    }
  }
}
node {
  name: "v/cg/resnet_v11/conv7/batchnorm7/beta/Assign"
  op: "Assign"
  input: "v/cg/resnet_v11/conv7/batchnorm7/beta"
  input: "v/cg/resnet_v11/conv7/batchnorm7/beta/Initializer/zeros"
  device: "/job:localhost/replica:0/task:0/device:NGRAPH:0"
  attr {
    key: "T"
    value {
      type: DT_FLOAT
    }
  }
  attr {
    key: "_class"
    value {
      list {
        s: "loc:@v/cg/resnet_v11/conv7/batchnorm7/beta"
      }
    }
  }
  attr {
    key: "use_locking"
    value {
      b: true
    }
  }
  attr {
    key: "validate_shape"
    value {
      b: true
    }
  }
}
node {
  name: "v/cg/resnet_v11/conv7/batchnorm7/beta/read"
  op: "Identity"
  input: "v/cg/resnet_v11/conv7/batchnorm7/beta"
  device: "/job:localhost/replica:0/task:0/device:NGRAPH:0"
  attr {
    key: "T"
    value {
      type: DT_FLOAT
    }
  }
  attr {
    key: "_class"
    value {
      list {
        s: "loc:@v/cg/resnet_v11/conv7/batchnorm7/beta"
      }
    }
  }
}
node {
  name: "v/cg/resnet_v11/conv7/batchnorm7/moving_mean/Initializer/zeros"
  op: "Const"
  attr {
    key: "_class"
    value {
      list {
        s: "loc:@v/cg/resnet_v11/conv7/batchnorm7/moving_mean"
      }
    }
  }
  attr {
    key: "dtype"
    value {
      type: DT_FLOAT
    }
  }
  attr {
    key: "value"
    value {
      tensor {
        dtype: DT_FLOAT
        tensor_shape {
          dim {
            size: 256
          }
        }
        float_val: 0.0
      }
    }
  }
}
node {
  name: "v/cg/resnet_v11/conv7/batchnorm7/moving_mean"
  op: "VariableV2"
  device: "/job:localhost/replica:0/task:0/device:NGRAPH:0"
  attr {
    key: "_class"
    value {
      list {
        s: "loc:@v/cg/resnet_v11/conv7/batchnorm7/moving_mean"
      }
    }
  }
  attr {
    key: "container"
    value {
      s: ""
    }
  }
  attr {
    key: "dtype"
    value {
      type: DT_FLOAT
    }
  }
  attr {
    key: "shape"
    value {
      shape {
        dim {
          size: 256
        }
      }
    }
  }
  attr {
    key: "shared_name"
    value {
      s: ""
    }
  }
}
node {
  name: "v/cg/resnet_v11/conv7/batchnorm7/moving_mean/Assign"
  op: "Assign"
  input: "v/cg/resnet_v11/conv7/batchnorm7/moving_mean"
  input: "v/cg/resnet_v11/conv7/batchnorm7/moving_mean/Initializer/zeros"
  device: "/job:localhost/replica:0/task:0/device:NGRAPH:0"
  attr {
    key: "T"
    value {
      type: DT_FLOAT
    }
  }
  attr {
    key: "_class"
    value {
      list {
        s: "loc:@v/cg/resnet_v11/conv7/batchnorm7/moving_mean"
      }
    }
  }
  attr {
    key: "use_locking"
    value {
      b: true
    }
  }
  attr {
    key: "validate_shape"
    value {
      b: true
    }
  }
}
node {
  name: "v/cg/resnet_v11/conv7/batchnorm7/moving_mean/read"
  op: "Identity"
  input: "v/cg/resnet_v11/conv7/batchnorm7/moving_mean"
  device: "/job:localhost/replica:0/task:0/device:NGRAPH:0"
  attr {
    key: "T"
    value {
      type: DT_FLOAT
    }
  }
  attr {
    key: "_class"
    value {
      list {
        s: "loc:@v/cg/resnet_v11/conv7/batchnorm7/moving_mean"
      }
    }
  }
}
node {
  name: "v/cg/resnet_v11/conv7/batchnorm7/moving_variance/Initializer/ones"
  op: "Const"
  attr {
    key: "_class"
    value {
      list {
        s: "loc:@v/cg/resnet_v11/conv7/batchnorm7/moving_variance"
      }
    }
  }
  attr {
    key: "dtype"
    value {
      type: DT_FLOAT
    }
  }
  attr {
    key: "value"
    value {
      tensor {
        dtype: DT_FLOAT
        tensor_shape {
          dim {
            size: 256
          }
        }
        float_val: 1.0
      }
    }
  }
}
node {
  name: "v/cg/resnet_v11/conv7/batchnorm7/moving_variance"
  op: "VariableV2"
  device: "/job:localhost/replica:0/task:0/device:NGRAPH:0"
  attr {
    key: "_class"
    value {
      list {
        s: "loc:@v/cg/resnet_v11/conv7/batchnorm7/moving_variance"
      }
    }
  }
  attr {
    key: "container"
    value {
      s: ""
    }
  }
  attr {
    key: "dtype"
    value {
      type: DT_FLOAT
    }
  }
  attr {
    key: "shape"
    value {
      shape {
        dim {
          size: 256
        }
      }
    }
  }
  attr {
    key: "shared_name"
    value {
      s: ""
    }
  }
}
node {
  name: "v/cg/resnet_v11/conv7/batchnorm7/moving_variance/Assign"
  op: "Assign"
  input: "v/cg/resnet_v11/conv7/batchnorm7/moving_variance"
  input: "v/cg/resnet_v11/conv7/batchnorm7/moving_variance/Initializer/ones"
  device: "/job:localhost/replica:0/task:0/device:NGRAPH:0"
  attr {
    key: "T"
    value {
      type: DT_FLOAT
    }
  }
  attr {
    key: "_class"
    value {
      list {
        s: "loc:@v/cg/resnet_v11/conv7/batchnorm7/moving_variance"
      }
    }
  }
  attr {
    key: "use_locking"
    value {
      b: true
    }
  }
  attr {
    key: "validate_shape"
    value {
      b: true
    }
  }
}
node {
  name: "v/cg/resnet_v11/conv7/batchnorm7/moving_variance/read"
  op: "Identity"
  input: "v/cg/resnet_v11/conv7/batchnorm7/moving_variance"
  device: "/job:localhost/replica:0/task:0/device:NGRAPH:0"
  attr {
    key: "T"
    value {
      type: DT_FLOAT
    }
  }
  attr {
    key: "_class"
    value {
      list {
        s: "loc:@v/cg/resnet_v11/conv7/batchnorm7/moving_variance"
      }
    }
  }
}
node {
  name: "v/tower_0/cg/resnet_v11/conv7/batchnorm7/FusedBatchNorm"
  op: "FusedBatchNorm"
  input: "v/tower_0/cg/resnet_v11/conv7/conv2d/Conv2D"
  input: "v/cg/resnet_v11/conv7/batchnorm7/gamma/read"
  input: "v/cg/resnet_v11/conv7/batchnorm7/beta/read"
  input: "v/cg/resnet_v11/conv7/batchnorm7/moving_mean/read"
  input: "v/cg/resnet_v11/conv7/batchnorm7/moving_variance/read"
  device: "/job:localhost/replica:0/task:0/device:NGRAPH:0"
  attr {
    key: "T"
    value {
      type: DT_FLOAT
    }
  }
  attr {
    key: "data_format"
    value {
      s: "NCHW"
    }
  }
  attr {
    key: "epsilon"
    value {
      f: 1.00099996416e-05
    }
  }
  attr {
    key: "is_training"
    value {
      b: false
    }
  }
}
node {
  name: "v/tower_0/cg/resnet_v11/conv7/batchnorm7/Const"
  op: "Const"
  device: "/job:localhost/replica:0/task:0/device:NGRAPH:0"
  attr {
    key: "dtype"
    value {
      type: DT_FLOAT
    }
  }
  attr {
    key: "value"
    value {
      tensor {
        dtype: DT_FLOAT
        tensor_shape {
        }
        float_val: 0.899999976158
      }
    }
  }
}
node {
  name: "v/tower_0/cg/resnet_v11/add"
  op: "Add"
  input: "v/tower_0/cg/resnet_v10/Relu"
  input: "v/tower_0/cg/resnet_v11/conv7/batchnorm7/FusedBatchNorm"
  device: "/job:localhost/replica:0/task:0/device:NGRAPH:0"
  attr {
    key: "T"
    value {
      type: DT_FLOAT
    }
  }
}
node {
  name: "v/tower_0/cg/resnet_v11/Relu"
  op: "Relu"
  input: "v/tower_0/cg/resnet_v11/add"
  device: "/job:localhost/replica:0/task:0/device:NGRAPH:0"
  attr {
    key: "T"
    value {
      type: DT_FLOAT
    }
  }
}
node {
  name: "v/cg/resnet_v12/conv8/conv2d/kernel/Initializer/random_uniform/shape"
  op: "Const"
  attr {
    key: "_class"
    value {
      list {
        s: "loc:@v/cg/resnet_v12/conv8/conv2d/kernel"
      }
    }
  }
  attr {
    key: "dtype"
    value {
      type: DT_INT32
    }
  }
  attr {
    key: "value"
    value {
      tensor {
        dtype: DT_INT32
        tensor_shape {
          dim {
            size: 4
          }
        }
        tensor_content: "\001\000\000\000\001\000\000\000\000\001\000\000@\000\000\000"
      }
    }
  }
}
node {
  name: "v/cg/resnet_v12/conv8/conv2d/kernel/Initializer/random_uniform/min"
  op: "Const"
  attr {
    key: "_class"
    value {
      list {
        s: "loc:@v/cg/resnet_v12/conv8/conv2d/kernel"
      }
    }
  }
  attr {
    key: "dtype"
    value {
      type: DT_FLOAT
    }
  }
  attr {
    key: "value"
    value {
      tensor {
        dtype: DT_FLOAT
        tensor_shape {
        }
        float_val: -0.136930644512
      }
    }
  }
}
node {
  name: "v/cg/resnet_v12/conv8/conv2d/kernel/Initializer/random_uniform/max"
  op: "Const"
  attr {
    key: "_class"
    value {
      list {
        s: "loc:@v/cg/resnet_v12/conv8/conv2d/kernel"
      }
    }
  }
  attr {
    key: "dtype"
    value {
      type: DT_FLOAT
    }
  }
  attr {
    key: "value"
    value {
      tensor {
        dtype: DT_FLOAT
        tensor_shape {
        }
        float_val: 0.136930644512
      }
    }
  }
}
node {
  name: "v/cg/resnet_v12/conv8/conv2d/kernel/Initializer/random_uniform/RandomUniform"
  op: "RandomUniform"
  input: "v/cg/resnet_v12/conv8/conv2d/kernel/Initializer/random_uniform/shape"
  attr {
    key: "T"
    value {
      type: DT_INT32
    }
  }
  attr {
    key: "_class"
    value {
      list {
        s: "loc:@v/cg/resnet_v12/conv8/conv2d/kernel"
      }
    }
  }
  attr {
    key: "dtype"
    value {
      type: DT_FLOAT
    }
  }
  attr {
    key: "seed"
    value {
      i: 1234
    }
  }
  attr {
    key: "seed2"
    value {
      i: 292
    }
  }
}
node {
  name: "v/cg/resnet_v12/conv8/conv2d/kernel/Initializer/random_uniform/sub"
  op: "Sub"
  input: "v/cg/resnet_v12/conv8/conv2d/kernel/Initializer/random_uniform/max"
  input: "v/cg/resnet_v12/conv8/conv2d/kernel/Initializer/random_uniform/min"
  attr {
    key: "T"
    value {
      type: DT_FLOAT
    }
  }
  attr {
    key: "_class"
    value {
      list {
        s: "loc:@v/cg/resnet_v12/conv8/conv2d/kernel"
      }
    }
  }
}
node {
  name: "v/cg/resnet_v12/conv8/conv2d/kernel/Initializer/random_uniform/mul"
  op: "Mul"
  input: "v/cg/resnet_v12/conv8/conv2d/kernel/Initializer/random_uniform/RandomUniform"
  input: "v/cg/resnet_v12/conv8/conv2d/kernel/Initializer/random_uniform/sub"
  attr {
    key: "T"
    value {
      type: DT_FLOAT
    }
  }
  attr {
    key: "_class"
    value {
      list {
        s: "loc:@v/cg/resnet_v12/conv8/conv2d/kernel"
      }
    }
  }
}
node {
  name: "v/cg/resnet_v12/conv8/conv2d/kernel/Initializer/random_uniform"
  op: "Add"
  input: "v/cg/resnet_v12/conv8/conv2d/kernel/Initializer/random_uniform/mul"
  input: "v/cg/resnet_v12/conv8/conv2d/kernel/Initializer/random_uniform/min"
  attr {
    key: "T"
    value {
      type: DT_FLOAT
    }
  }
  attr {
    key: "_class"
    value {
      list {
        s: "loc:@v/cg/resnet_v12/conv8/conv2d/kernel"
      }
    }
  }
}
node {
  name: "v/cg/resnet_v12/conv8/conv2d/kernel"
  op: "VariableV2"
  device: "/job:localhost/replica:0/task:0/device:NGRAPH:0"
  attr {
    key: "_class"
    value {
      list {
        s: "loc:@v/cg/resnet_v12/conv8/conv2d/kernel"
      }
    }
  }
  attr {
    key: "container"
    value {
      s: ""
    }
  }
  attr {
    key: "dtype"
    value {
      type: DT_FLOAT
    }
  }
  attr {
    key: "shape"
    value {
      shape {
        dim {
          size: 1
        }
        dim {
          size: 1
        }
        dim {
          size: 256
        }
        dim {
          size: 64
        }
      }
    }
  }
  attr {
    key: "shared_name"
    value {
      s: ""
    }
  }
}
node {
  name: "v/cg/resnet_v12/conv8/conv2d/kernel/Assign"
  op: "Assign"
  input: "v/cg/resnet_v12/conv8/conv2d/kernel"
  input: "v/cg/resnet_v12/conv8/conv2d/kernel/Initializer/random_uniform"
  device: "/job:localhost/replica:0/task:0/device:NGRAPH:0"
  attr {
    key: "T"
    value {
      type: DT_FLOAT
    }
  }
  attr {
    key: "_class"
    value {
      list {
        s: "loc:@v/cg/resnet_v12/conv8/conv2d/kernel"
      }
    }
  }
  attr {
    key: "use_locking"
    value {
      b: true
    }
  }
  attr {
    key: "validate_shape"
    value {
      b: true
    }
  }
}
node {
  name: "v/cg/resnet_v12/conv8/conv2d/kernel/read"
  op: "Identity"
  input: "v/cg/resnet_v12/conv8/conv2d/kernel"
  device: "/job:localhost/replica:0/task:0/device:NGRAPH:0"
  attr {
    key: "T"
    value {
      type: DT_FLOAT
    }
  }
  attr {
    key: "_class"
    value {
      list {
        s: "loc:@v/cg/resnet_v12/conv8/conv2d/kernel"
      }
    }
  }
}
node {
  name: "v/tower_0/cg/resnet_v12/conv8/conv2d/dilation_rate"
  op: "Const"
  device: "/job:localhost/replica:0/task:0/device:NGRAPH:0"
  attr {
    key: "dtype"
    value {
      type: DT_INT32
    }
  }
  attr {
    key: "value"
    value {
      tensor {
        dtype: DT_INT32
        tensor_shape {
          dim {
            size: 2
          }
        }
        tensor_content: "\001\000\000\000\001\000\000\000"
      }
    }
  }
}
node {
  name: "v/tower_0/cg/resnet_v12/conv8/conv2d/Conv2D"
  op: "Conv2D"
  input: "v/tower_0/cg/resnet_v11/Relu"
  input: "v/cg/resnet_v12/conv8/conv2d/kernel/read"
  device: "/job:localhost/replica:0/task:0/device:NGRAPH:0"
  attr {
    key: "T"
    value {
      type: DT_FLOAT
    }
  }
  attr {
    key: "data_format"
    value {
      s: "NCHW"
    }
  }
  attr {
    key: "dilations"
    value {
      list {
        i: 1
        i: 1
        i: 1
        i: 1
      }
    }
  }
  attr {
    key: "padding"
    value {
      s: "SAME"
    }
  }
  attr {
    key: "strides"
    value {
      list {
        i: 1
        i: 1
        i: 1
        i: 1
      }
    }
  }
  attr {
    key: "use_cudnn_on_gpu"
    value {
      b: true
    }
  }
}
node {
  name: "v/cg/resnet_v12/conv8/batchnorm8/gamma/Initializer/ones"
  op: "Const"
  attr {
    key: "_class"
    value {
      list {
        s: "loc:@v/cg/resnet_v12/conv8/batchnorm8/gamma"
      }
    }
  }
  attr {
    key: "dtype"
    value {
      type: DT_FLOAT
    }
  }
  attr {
    key: "value"
    value {
      tensor {
        dtype: DT_FLOAT
        tensor_shape {
          dim {
            size: 64
          }
        }
        float_val: 1.0
      }
    }
  }
}
node {
  name: "v/cg/resnet_v12/conv8/batchnorm8/gamma"
  op: "VariableV2"
  device: "/job:localhost/replica:0/task:0/device:NGRAPH:0"
  attr {
    key: "_class"
    value {
      list {
        s: "loc:@v/cg/resnet_v12/conv8/batchnorm8/gamma"
      }
    }
  }
  attr {
    key: "container"
    value {
      s: ""
    }
  }
  attr {
    key: "dtype"
    value {
      type: DT_FLOAT
    }
  }
  attr {
    key: "shape"
    value {
      shape {
        dim {
          size: 64
        }
      }
    }
  }
  attr {
    key: "shared_name"
    value {
      s: ""
    }
  }
}
node {
  name: "v/cg/resnet_v12/conv8/batchnorm8/gamma/Assign"
  op: "Assign"
  input: "v/cg/resnet_v12/conv8/batchnorm8/gamma"
  input: "v/cg/resnet_v12/conv8/batchnorm8/gamma/Initializer/ones"
  device: "/job:localhost/replica:0/task:0/device:NGRAPH:0"
  attr {
    key: "T"
    value {
      type: DT_FLOAT
    }
  }
  attr {
    key: "_class"
    value {
      list {
        s: "loc:@v/cg/resnet_v12/conv8/batchnorm8/gamma"
      }
    }
  }
  attr {
    key: "use_locking"
    value {
      b: true
    }
  }
  attr {
    key: "validate_shape"
    value {
      b: true
    }
  }
}
node {
  name: "v/cg/resnet_v12/conv8/batchnorm8/gamma/read"
  op: "Identity"
  input: "v/cg/resnet_v12/conv8/batchnorm8/gamma"
  device: "/job:localhost/replica:0/task:0/device:NGRAPH:0"
  attr {
    key: "T"
    value {
      type: DT_FLOAT
    }
  }
  attr {
    key: "_class"
    value {
      list {
        s: "loc:@v/cg/resnet_v12/conv8/batchnorm8/gamma"
      }
    }
  }
}
node {
  name: "v/cg/resnet_v12/conv8/batchnorm8/beta/Initializer/zeros"
  op: "Const"
  attr {
    key: "_class"
    value {
      list {
        s: "loc:@v/cg/resnet_v12/conv8/batchnorm8/beta"
      }
    }
  }
  attr {
    key: "dtype"
    value {
      type: DT_FLOAT
    }
  }
  attr {
    key: "value"
    value {
      tensor {
        dtype: DT_FLOAT
        tensor_shape {
          dim {
            size: 64
          }
        }
        float_val: 0.0
      }
    }
  }
}
node {
  name: "v/cg/resnet_v12/conv8/batchnorm8/beta"
  op: "VariableV2"
  device: "/job:localhost/replica:0/task:0/device:NGRAPH:0"
  attr {
    key: "_class"
    value {
      list {
        s: "loc:@v/cg/resnet_v12/conv8/batchnorm8/beta"
      }
    }
  }
  attr {
    key: "container"
    value {
      s: ""
    }
  }
  attr {
    key: "dtype"
    value {
      type: DT_FLOAT
    }
  }
  attr {
    key: "shape"
    value {
      shape {
        dim {
          size: 64
        }
      }
    }
  }
  attr {
    key: "shared_name"
    value {
      s: ""
    }
  }
}
node {
  name: "v/cg/resnet_v12/conv8/batchnorm8/beta/Assign"
  op: "Assign"
  input: "v/cg/resnet_v12/conv8/batchnorm8/beta"
…
  input: "report_uninitialized_variables/IsVariableInitialized_225"
  input: "report_uninitialized_variables/IsVariableInitialized_226"
  input: "report_uninitialized_variables/IsVariableInitialized_227"
  input: "report_uninitialized_variables/IsVariableInitialized_228"
  input: "report_uninitialized_variables/IsVariableInitialized_229"
  input: "report_uninitialized_variables/IsVariableInitialized_230"
  input: "report_uninitialized_variables/IsVariableInitialized_231"
  input: "report_uninitialized_variables/IsVariableInitialized_232"
  input: "report_uninitialized_variables/IsVariableInitialized_233"
  input: "report_uninitialized_variables/IsVariableInitialized_234"
  input: "report_uninitialized_variables/IsVariableInitialized_235"
  input: "report_uninitialized_variables/IsVariableInitialized_236"
  input: "report_uninitialized_variables/IsVariableInitialized_237"
  input: "report_uninitialized_variables/IsVariableInitialized_238"
  input: "report_uninitialized_variables/IsVariableInitialized_239"
  input: "report_uninitialized_variables/IsVariableInitialized_240"
  input: "report_uninitialized_variables/IsVariableInitialized_241"
  input: "report_uninitialized_variables/IsVariableInitialized_242"
  input: "report_uninitialized_variables/IsVariableInitialized_243"
  input: "report_uninitialized_variables/IsVariableInitialized_244"
  input: "report_uninitialized_variables/IsVariableInitialized_245"
  input: "report_uninitialized_variables/IsVariableInitialized_246"
  input: "report_uninitialized_variables/IsVariableInitialized_247"
  input: "report_uninitialized_variables/IsVariableInitialized_248"
  input: "report_uninitialized_variables/IsVariableInitialized_249"
  input: "report_uninitialized_variables/IsVariableInitialized_250"
  input: "report_uninitialized_variables/IsVariableInitialized_251"
  input: "report_uninitialized_variables/IsVariableInitialized_252"
  input: "report_uninitialized_variables/IsVariableInitialized_253"
  input: "report_uninitialized_variables/IsVariableInitialized_254"
  input: "report_uninitialized_variables/IsVariableInitialized_255"
  input: "report_uninitialized_variables/IsVariableInitialized_256"
  input: "report_uninitialized_variables/IsVariableInitialized_257"
  input: "report_uninitialized_variables/IsVariableInitialized_258"
  input: "report_uninitialized_variables/IsVariableInitialized_259"
  input: "report_uninitialized_variables/IsVariableInitialized_260"
  input: "report_uninitialized_variables/IsVariableInitialized_261"
  input: "report_uninitialized_variables/IsVariableInitialized_262"
  input: "report_uninitialized_variables/IsVariableInitialized_263"
  input: "report_uninitialized_variables/IsVariableInitialized_264"
  input: "report_uninitialized_variables/IsVariableInitialized_265"
  input: "report_uninitialized_variables/IsVariableInitialized_266"
  input: "report_uninitialized_variables/IsVariableInitialized_267"
  input: "report_uninitialized_variables/IsVariableInitialized_268"
  input: "report_uninitialized_variables/IsVariableInitialized_269"
  input: "report_uninitialized_variables/IsVariableInitialized_270"
  device: "/device:CPU:0"
  attr {
    key: "N"
    value {
      i: 271
    }
  }
  attr {
    key: "T"
    value {
      type: DT_BOOL
    }
  }
  attr {
    key: "axis"
    value {
      i: 0
    }
  }
}
node {
  name: "report_uninitialized_variables/LogicalNot"
  op: "LogicalNot"
  input: "report_uninitialized_variables/stack"
  device: "/device:CPU:0"
}
node {
  name: "report_uninitialized_variables/Const"
  op: "Const"
  device: "/device:CPU:0"
  attr {
    key: "dtype"
    value {
      type: DT_STRING
    }
  }
  attr {
    key: "value"
    value {
      tensor {
        dtype: DT_STRING
        tensor_shape {
          dim {
            size: 271
          }
        }
        string_val: "global_step"
        string_val: "v/cg/conv0/conv2d/kernel"
        string_val: "v/cg/conv0/batchnorm0/gamma"
        string_val: "v/cg/conv0/batchnorm0/beta"
        string_val: "v/cg/conv0/batchnorm0/moving_mean"
        string_val: "v/cg/conv0/batchnorm0/moving_variance"
        string_val: "v/cg/resnet_v10/conv1/conv2d/kernel"
        string_val: "v/cg/resnet_v10/conv1/batchnorm1/gamma"
        string_val: "v/cg/resnet_v10/conv1/batchnorm1/beta"
        string_val: "v/cg/resnet_v10/conv1/batchnorm1/moving_mean"
        string_val: "v/cg/resnet_v10/conv1/batchnorm1/moving_variance"
        string_val: "v/cg/resnet_v10/conv2/conv2d/kernel"
        string_val: "v/cg/resnet_v10/conv2/batchnorm2/gamma"
        string_val: "v/cg/resnet_v10/conv2/batchnorm2/beta"
        string_val: "v/cg/resnet_v10/conv2/batchnorm2/moving_mean"
        string_val: "v/cg/resnet_v10/conv2/batchnorm2/moving_variance"
        string_val: "v/cg/resnet_v10/conv3/conv2d/kernel"
        string_val: "v/cg/resnet_v10/conv3/batchnorm3/gamma"
        string_val: "v/cg/resnet_v10/conv3/batchnorm3/beta"
        string_val: "v/cg/resnet_v10/conv3/batchnorm3/moving_mean"
        string_val: "v/cg/resnet_v10/conv3/batchnorm3/moving_variance"
        string_val: "v/cg/resnet_v10/conv4/conv2d/kernel"
        string_val: "v/cg/resnet_v10/conv4/batchnorm4/gamma"
        string_val: "v/cg/resnet_v10/conv4/batchnorm4/beta"
        string_val: "v/cg/resnet_v10/conv4/batchnorm4/moving_mean"
        string_val: "v/cg/resnet_v10/conv4/batchnorm4/moving_variance"
        string_val: "v/cg/resnet_v11/conv5/conv2d/kernel"
        string_val: "v/cg/resnet_v11/conv5/batchnorm5/gamma"
        string_val: "v/cg/resnet_v11/conv5/batchnorm5/beta"
        string_val: "v/cg/resnet_v11/conv5/batchnorm5/moving_mean"
        string_val: "v/cg/resnet_v11/conv5/batchnorm5/moving_variance"
        string_val: "v/cg/resnet_v11/conv6/conv2d/kernel"
        string_val: "v/cg/resnet_v11/conv6/batchnorm6/gamma"
        string_val: "v/cg/resnet_v11/conv6/batchnorm6/beta"
        string_val: "v/cg/resnet_v11/conv6/batchnorm6/moving_mean"
        string_val: "v/cg/resnet_v11/conv6/batchnorm6/moving_variance"
        string_val: "v/cg/resnet_v11/conv7/conv2d/kernel"
        string_val: "v/cg/resnet_v11/conv7/batchnorm7/gamma"
        string_val: "v/cg/resnet_v11/conv7/batchnorm7/beta"
        string_val: "v/cg/resnet_v11/conv7/batchnorm7/moving_mean"
        string_val: "v/cg/resnet_v11/conv7/batchnorm7/moving_variance"
        string_val: "v/cg/resnet_v12/conv8/conv2d/kernel"
        string_val: "v/cg/resnet_v12/conv8/batchnorm8/gamma"
        string_val: "v/cg/resnet_v12/conv8/batchnorm8/beta"
        string_val: "v/cg/resnet_v12/conv8/batchnorm8/moving_mean"
        string_val: "v/cg/resnet_v12/conv8/batchnorm8/moving_variance"
        string_val: "v/cg/resnet_v12/conv9/conv2d/kernel"
        string_val: "v/cg/resnet_v12/conv9/batchnorm9/gamma"
        string_val: "v/cg/resnet_v12/conv9/batchnorm9/beta"
        string_val: "v/cg/resnet_v12/conv9/batchnorm9/moving_mean"
        string_val: "v/cg/resnet_v12/conv9/batchnorm9/moving_variance"
        string_val: "v/cg/resnet_v12/conv10/conv2d/kernel"
        string_val: "v/cg/resnet_v12/conv10/batchnorm10/gamma"
        string_val: "v/cg/resnet_v12/conv10/batchnorm10/beta"
        string_val: "v/cg/resnet_v12/conv10/batchnorm10/moving_mean"
        string_val: "v/cg/resnet_v12/conv10/batchnorm10/moving_variance"
        string_val: "v/cg/resnet_v13/conv11/conv2d/kernel"
        string_val: "v/cg/resnet_v13/conv11/batchnorm11/gamma"
        string_val: "v/cg/resnet_v13/conv11/batchnorm11/beta"
        string_val: "v/cg/resnet_v13/conv11/batchnorm11/moving_mean"
        string_val: "v/cg/resnet_v13/conv11/batchnorm11/moving_variance"
        string_val: "v/cg/resnet_v13/conv12/conv2d/kernel"
        string_val: "v/cg/resnet_v13/conv12/batchnorm12/gamma"
        string_val: "v/cg/resnet_v13/conv12/batchnorm12/beta"
        string_val: "v/cg/resnet_v13/conv12/batchnorm12/moving_mean"
        string_val: "v/cg/resnet_v13/conv12/batchnorm12/moving_variance"
        string_val: "v/cg/resnet_v13/conv13/conv2d/kernel"
        string_val: "v/cg/resnet_v13/conv13/batchnorm13/gamma"
        string_val: "v/cg/resnet_v13/conv13/batchnorm13/beta"
        string_val: "v/cg/resnet_v13/conv13/batchnorm13/moving_mean"
        string_val: "v/cg/resnet_v13/conv13/batchnorm13/moving_variance"
        string_val: "v/cg/resnet_v13/conv14/conv2d/kernel"
        string_val: "v/cg/resnet_v13/conv14/batchnorm14/gamma"
        string_val: "v/cg/resnet_v13/conv14/batchnorm14/beta"
        string_val: "v/cg/resnet_v13/conv14/batchnorm14/moving_mean"
        string_val: "v/cg/resnet_v13/conv14/batchnorm14/moving_variance"
        string_val: "v/cg/resnet_v14/conv15/conv2d/kernel"
        string_val: "v/cg/resnet_v14/conv15/batchnorm15/gamma"
        string_val: "v/cg/resnet_v14/conv15/batchnorm15/beta"
        string_val: "v/cg/resnet_v14/conv15/batchnorm15/moving_mean"
        string_val: "v/cg/resnet_v14/conv15/batchnorm15/moving_variance"
        string_val: "v/cg/resnet_v14/conv16/conv2d/kernel"
        string_val: "v/cg/resnet_v14/conv16/batchnorm16/gamma"
        string_val: "v/cg/resnet_v14/conv16/batchnorm16/beta"
        string_val: "v/cg/resnet_v14/conv16/batchnorm16/moving_mean"
        string_val: "v/cg/resnet_v14/conv16/batchnorm16/moving_variance"
        string_val: "v/cg/resnet_v14/conv17/conv2d/kernel"
        string_val: "v/cg/resnet_v14/conv17/batchnorm17/gamma"
        string_val: "v/cg/resnet_v14/conv17/batchnorm17/beta"
        string_val: "v/cg/resnet_v14/conv17/batchnorm17/moving_mean"
        string_val: "v/cg/resnet_v14/conv17/batchnorm17/moving_variance"
        string_val: "v/cg/resnet_v15/conv18/conv2d/kernel"
        string_val: "v/cg/resnet_v15/conv18/batchnorm18/gamma"
        string_val: "v/cg/resnet_v15/conv18/batchnorm18/beta"
        string_val: "v/cg/resnet_v15/conv18/batchnorm18/moving_mean"
        string_val: "v/cg/resnet_v15/conv18/batchnorm18/moving_variance"
        string_val: "v/cg/resnet_v15/conv19/conv2d/kernel"
        string_val: "v/cg/resnet_v15/conv19/batchnorm19/gamma"
        string_val: "v/cg/resnet_v15/conv19/batchnorm19/beta"
        string_val: "v/cg/resnet_v15/conv19/batchnorm19/moving_mean"
        string_val: "v/cg/resnet_v15/conv19/batchnorm19/moving_variance"
        string_val: "v/cg/resnet_v15/conv20/conv2d/kernel"
        string_val: "v/cg/resnet_v15/conv20/batchnorm20/gamma"
        string_val: "v/cg/resnet_v15/conv20/batchnorm20/beta"
        string_val: "v/cg/resnet_v15/conv20/batchnorm20/moving_mean"
        string_val: "v/cg/resnet_v15/conv20/batchnorm20/moving_variance"
        string_val: "v/cg/resnet_v16/conv21/conv2d/kernel"
        string_val: "v/cg/resnet_v16/conv21/batchnorm21/gamma"
        string_val: "v/cg/resnet_v16/conv21/batchnorm21/beta"
        string_val: "v/cg/resnet_v16/conv21/batchnorm21/moving_mean"
        string_val: "v/cg/resnet_v16/conv21/batchnorm21/moving_variance"
        string_val: "v/cg/resnet_v16/conv22/conv2d/kernel"
        string_val: "v/cg/resnet_v16/conv22/batchnorm22/gamma"
        string_val: "v/cg/resnet_v16/conv22/batchnorm22/beta"
        string_val: "v/cg/resnet_v16/conv22/batchnorm22/moving_mean"
        string_val: "v/cg/resnet_v16/conv22/batchnorm22/moving_variance"
        string_val: "v/cg/resnet_v16/conv23/conv2d/kernel"
        string_val: "v/cg/resnet_v16/conv23/batchnorm23/gamma"
        string_val: "v/cg/resnet_v16/conv23/batchnorm23/beta"
        string_val: "v/cg/resnet_v16/conv23/batchnorm23/moving_mean"
        string_val: "v/cg/resnet_v16/conv23/batchnorm23/moving_variance"
        string_val: "v/cg/resnet_v17/conv24/conv2d/kernel"
        string_val: "v/cg/resnet_v17/conv24/batchnorm24/gamma"
        string_val: "v/cg/resnet_v17/conv24/batchnorm24/beta"
        string_val: "v/cg/resnet_v17/conv24/batchnorm24/moving_mean"
        string_val: "v/cg/resnet_v17/conv24/batchnorm24/moving_variance"
        string_val: "v/cg/resnet_v17/conv25/conv2d/kernel"
        string_val: "v/cg/resnet_v17/conv25/batchnorm25/gamma"
        string_val: "v/cg/resnet_v17/conv25/batchnorm25/beta"
        string_val: "v/cg/resnet_v17/conv25/batchnorm25/moving_mean"
        string_val: "v/cg/resnet_v17/conv25/batchnorm25/moving_variance"
        string_val: "v/cg/resnet_v17/conv26/conv2d/kernel"
        string_val: "v/cg/resnet_v17/conv26/batchnorm26/gamma"
        string_val: "v/cg/resnet_v17/conv26/batchnorm26/beta"
        string_val: "v/cg/resnet_v17/conv26/batchnorm26/moving_mean"
        string_val: "v/cg/resnet_v17/conv26/batchnorm26/moving_variance"
        string_val: "v/cg/resnet_v17/conv27/conv2d/kernel"
        string_val: "v/cg/resnet_v17/conv27/batchnorm27/gamma"
        string_val: "v/cg/resnet_v17/conv27/batchnorm27/beta"
        string_val: "v/cg/resnet_v17/conv27/batchnorm27/moving_mean"
        string_val: "v/cg/resnet_v17/conv27/batchnorm27/moving_variance"
        string_val: "v/cg/resnet_v18/conv28/conv2d/kernel"
        string_val: "v/cg/resnet_v18/conv28/batchnorm28/gamma"
        string_val: "v/cg/resnet_v18/conv28/batchnorm28/beta"
        string_val: "v/cg/resnet_v18/conv28/batchnorm28/moving_mean"
        string_val: "v/cg/resnet_v18/conv28/batchnorm28/moving_variance"
        string_val: "v/cg/resnet_v18/conv29/conv2d/kernel"
        string_val: "v/cg/resnet_v18/conv29/batchnorm29/gamma"
        string_val: "v/cg/resnet_v18/conv29/batchnorm29/beta"
        string_val: "v/cg/resnet_v18/conv29/batchnorm29/moving_mean"
        string_val: "v/cg/resnet_v18/conv29/batchnorm29/moving_variance"
        string_val: "v/cg/resnet_v18/conv30/conv2d/kernel"
        string_val: "v/cg/resnet_v18/conv30/batchnorm30/gamma"
        string_val: "v/cg/resnet_v18/conv30/batchnorm30/beta"
        string_val: "v/cg/resnet_v18/conv30/batchnorm30/moving_mean"
        string_val: "v/cg/resnet_v18/conv30/batchnorm30/moving_variance"
        string_val: "v/cg/resnet_v19/conv31/conv2d/kernel"
        string_val: "v/cg/resnet_v19/conv31/batchnorm31/gamma"
        string_val: "v/cg/resnet_v19/conv31/batchnorm31/beta"
        string_val: "v/cg/resnet_v19/conv31/batchnorm31/moving_mean"
        string_val: "v/cg/resnet_v19/conv31/batchnorm31/moving_variance"
        string_val: "v/cg/resnet_v19/conv32/conv2d/kernel"
        string_val: "v/cg/resnet_v19/conv32/batchnorm32/gamma"
        string_val: "v/cg/resnet_v19/conv32/batchnorm32/beta"
        string_val: "v/cg/resnet_v19/conv32/batchnorm32/moving_mean"
        string_val: "v/cg/resnet_v19/conv32/batchnorm32/moving_variance"
        string_val: "v/cg/resnet_v19/conv33/conv2d/kernel"
        string_val: "v/cg/resnet_v19/conv33/batchnorm33/gamma"
        string_val: "v/cg/resnet_v19/conv33/batchnorm33/beta"
        string_val: "v/cg/resnet_v19/conv33/batchnorm33/moving_mean"
        string_val: "v/cg/resnet_v19/conv33/batchnorm33/moving_variance"
        string_val: "v/cg/resnet_v110/conv34/conv2d/kernel"
        string_val: "v/cg/resnet_v110/conv34/batchnorm34/gamma"
        string_val: "v/cg/resnet_v110/conv34/batchnorm34/beta"
        string_val: "v/cg/resnet_v110/conv34/batchnorm34/moving_mean"
        string_val: "v/cg/resnet_v110/conv34/batchnorm34/moving_variance"
        string_val: "v/cg/resnet_v110/conv35/conv2d/kernel"
        string_val: "v/cg/resnet_v110/conv35/batchnorm35/gamma"
        string_val: "v/cg/resnet_v110/conv35/batchnorm35/beta"
        string_val: "v/cg/resnet_v110/conv35/batchnorm35/moving_mean"
        string_val: "v/cg/resnet_v110/conv35/batchnorm35/moving_variance"
        string_val: "v/cg/resnet_v110/conv36/conv2d/kernel"
        string_val: "v/cg/resnet_v110/conv36/batchnorm36/gamma"
        string_val: "v/cg/resnet_v110/conv36/batchnorm36/beta"
        string_val: "v/cg/resnet_v110/conv36/batchnorm36/moving_mean"
        string_val: "v/cg/resnet_v110/conv36/batchnorm36/moving_variance"
        string_val: "v/cg/resnet_v111/conv37/conv2d/kernel"
        string_val: "v/cg/resnet_v111/conv37/batchnorm37/gamma"
        string_val: "v/cg/resnet_v111/conv37/batchnorm37/beta"
        string_val: "v/cg/resnet_v111/conv37/batchnorm37/moving_mean"
        string_val: "v/cg/resnet_v111/conv37/batchnorm37/moving_variance"
        string_val: "v/cg/resnet_v111/conv38/conv2d/kernel"
        string_val: "v/cg/resnet_v111/conv38/batchnorm38/gamma"
        string_val: "v/cg/resnet_v111/conv38/batchnorm38/beta"
        string_val: "v/cg/resnet_v111/conv38/batchnorm38/moving_mean"
        string_val: "v/cg/resnet_v111/conv38/batchnorm38/moving_variance"
        string_val: "v/cg/resnet_v111/conv39/conv2d/kernel"
        string_val: "v/cg/resnet_v111/conv39/batchnorm39/gamma"
        string_val: "v/cg/resnet_v111/conv39/batchnorm39/beta"
        string_val: "v/cg/resnet_v111/conv39/batchnorm39/moving_mean"
        string_val: "v/cg/resnet_v111/conv39/batchnorm39/moving_variance"
        string_val: "v/cg/resnet_v112/conv40/conv2d/kernel"
        string_val: "v/cg/resnet_v112/conv40/batchnorm40/gamma"
        string_val: "v/cg/resnet_v112/conv40/batchnorm40/beta"
        string_val: "v/cg/resnet_v112/conv40/batchnorm40/moving_mean"
        string_val: "v/cg/resnet_v112/conv40/batchnorm40/moving_variance"
        string_val: "v/cg/resnet_v112/conv41/conv2d/kernel"
        string_val: "v/cg/resnet_v112/conv41/batchnorm41/gamma"
        string_val: "v/cg/resnet_v112/conv41/batchnorm41/beta"
        string_val: "v/cg/resnet_v112/conv41/batchnorm41/moving_mean"
        string_val: "v/cg/resnet_v112/conv41/batchnorm41/moving_variance"
        string_val: "v/cg/resnet_v112/conv42/conv2d/kernel"
        string_val: "v/cg/resnet_v112/conv42/batchnorm42/gamma"
        string_val: "v/cg/resnet_v112/conv42/batchnorm42/beta"
        string_val: "v/cg/resnet_v112/conv42/batchnorm42/moving_mean"
        string_val: "v/cg/resnet_v112/conv42/batchnorm42/moving_variance"
        string_val: "v/cg/resnet_v113/conv43/conv2d/kernel"
        string_val: "v/cg/resnet_v113/conv43/batchnorm43/gamma"
        string_val: "v/cg/resnet_v113/conv43/batchnorm43/beta"
        string_val: "v/cg/resnet_v113/conv43/batchnorm43/moving_mean"
        string_val: "v/cg/resnet_v113/conv43/batchnorm43/moving_variance"
        string_val: "v/cg/resnet_v113/conv44/conv2d/kernel"
        string_val: "v/cg/resnet_v113/conv44/batchnorm44/gamma"
        string_val: "v/cg/resnet_v113/conv44/batchnorm44/beta"
        string_val: "v/cg/resnet_v113/conv44/batchnorm44/moving_mean"
        string_val: "v/cg/resnet_v113/conv44/batchnorm44/moving_variance"
        string_val: "v/cg/resnet_v113/conv45/conv2d/kernel"
        string_val: "v/cg/resnet_v113/conv45/batchnorm45/gamma"
        string_val: "v/cg/resnet_v113/conv45/batchnorm45/beta"
        string_val: "v/cg/resnet_v113/conv45/batchnorm45/moving_mean"
        string_val: "v/cg/resnet_v113/conv45/batchnorm45/moving_variance"
        string_val: "v/cg/resnet_v113/conv46/conv2d/kernel"
        string_val: "v/cg/resnet_v113/conv46/batchnorm46/gamma"
        string_val: "v/cg/resnet_v113/conv46/batchnorm46/beta"
        string_val: "v/cg/resnet_v113/conv46/batchnorm46/moving_mean"
        string_val: "v/cg/resnet_v113/conv46/batchnorm46/moving_variance"
        string_val: "v/cg/resnet_v114/conv47/conv2d/kernel"
        string_val: "v/cg/resnet_v114/conv47/batchnorm47/gamma"
        string_val: "v/cg/resnet_v114/conv47/batchnorm47/beta"
        string_val: "v/cg/resnet_v114/conv47/batchnorm47/moving_mean"
        string_val: "v/cg/resnet_v114/conv47/batchnorm47/moving_variance"
        string_val: "v/cg/resnet_v114/conv48/conv2d/kernel"
        string_val: "v/cg/resnet_v114/conv48/batchnorm48/gamma"
        string_val: "v/cg/resnet_v114/conv48/batchnorm48/beta"
        string_val: "v/cg/resnet_v114/conv48/batchnorm48/moving_mean"
        string_val: "v/cg/resnet_v114/conv48/batchnorm48/moving_variance"
        string_val: "v/cg/resnet_v114/conv49/conv2d/kernel"
        string_val: "v/cg/resnet_v114/conv49/batchnorm49/gamma"
        string_val: "v/cg/resnet_v114/conv49/batchnorm49/beta"
        string_val: "v/cg/resnet_v114/conv49/batchnorm49/moving_mean"
        string_val: "v/cg/resnet_v114/conv49/batchnorm49/moving_variance"
        string_val: "v/cg/resnet_v115/conv50/conv2d/kernel"
        string_val: "v/cg/resnet_v115/conv50/batchnorm50/gamma"
        string_val: "v/cg/resnet_v115/conv50/batchnorm50/beta"
        string_val: "v/cg/resnet_v115/conv50/batchnorm50/moving_mean"
        string_val: "v/cg/resnet_v115/conv50/batchnorm50/moving_variance"
        string_val: "v/cg/resnet_v115/conv51/conv2d/kernel"
        string_val: "v/cg/resnet_v115/conv51/batchnorm51/gamma"
        string_val: "v/cg/resnet_v115/conv51/batchnorm51/beta"
        string_val: "v/cg/resnet_v115/conv51/batchnorm51/moving_mean"
        string_val: "v/cg/resnet_v115/conv51/batchnorm51/moving_variance"
        string_val: "v/cg/resnet_v115/conv52/conv2d/kernel"
        string_val: "v/cg/resnet_v115/conv52/batchnorm52/gamma"
        string_val: "v/cg/resnet_v115/conv52/batchnorm52/beta"
        string_val: "v/cg/resnet_v115/conv52/batchnorm52/moving_mean"
        string_val: "v/cg/resnet_v115/conv52/batchnorm52/moving_variance"
        string_val: "v/cg/affine0/weights"
        string_val: "v/cg/affine0/biases"
        string_val: "images"
        string_val: "labels"
        string_val: "v/tower_0/gpu_cached_images"
      }
    }
  }
}
node {
  name: "report_uninitialized_variables/boolean_mask/Shape"
  op: "Const"
  device: "/device:CPU:0"
  attr {
    key: "dtype"
    value {
      type: DT_INT32
    }
  }
  attr {
    key: "value"
    value {
      tensor {
        dtype: DT_INT32
        tensor_shape {
          dim {
            size: 1
          }
        }
        int_val: 271
      }
    }
  }
}
node {
  name: "report_uninitialized_variables/boolean_mask/strided_slice/stack"
  op: "Const"
  device: "/device:CPU:0"
  attr {
    key: "dtype"
    value {
      type: DT_INT32
    }
  }
  attr {
    key: "value"
    value {
      tensor {
        dtype: DT_INT32
        tensor_shape {
          dim {
            size: 1
          }
        }
        int_val: 0
      }
    }
  }
}
node {
  name: "report_uninitialized_variables/boolean_mask/strided_slice/stack_1"
  op: "Const"
  device: "/device:CPU:0"
  attr {
    key: "dtype"
    value {
      type: DT_INT32
    }
  }
  attr {
    key: "value"
    value {
      tensor {
        dtype: DT_INT32
        tensor_shape {
          dim {
            size: 1
          }
        }
        int_val: 1
      }
    }
  }
}
node {
  name: "report_uninitialized_variables/boolean_mask/strided_slice/stack_2"
  op: "Const"
  device: "/device:CPU:0"
  attr {
    key: "dtype"
    value {
      type: DT_INT32
    }
  }
  attr {
    key: "value"
    value {
      tensor {
        dtype: DT_INT32
        tensor_shape {
          dim {
            size: 1
          }
        }
        int_val: 1
      }
    }
  }
}
node {
  name: "report_uninitialized_variables/boolean_mask/strided_slice"
  op: "StridedSlice"
  input: "report_uninitialized_variables/boolean_mask/Shape"
  input: "report_uninitialized_variables/boolean_mask/strided_slice/stack"
  input: "report_uninitialized_variables/boolean_mask/strided_slice/stack_1"
  input: "report_uninitialized_variables/boolean_mask/strided_slice/stack_2"
  device: "/device:CPU:0"
  attr {
    key: "Index"
    value {
      type: DT_INT32
    }
  }
  attr {
    key: "T"
    value {
      type: DT_INT32
    }
  }
  attr {
    key: "begin_mask"
    value {
      i: 0
    }
  }
  attr {
    key: "ellipsis_mask"
    value {
      i: 0
    }
  }
  attr {
    key: "end_mask"
    value {
      i: 0
    }
  }
  attr {
    key: "new_axis_mask"
    value {
      i: 0
    }
  }
  attr {
    key: "shrink_axis_mask"
    value {
      i: 0
    }
  }
}
node {
  name: "report_uninitialized_variables/boolean_mask/Prod/reduction_indices"
  op: "Const"
  device: "/device:CPU:0"
  attr {
    key: "dtype"
    value {
      type: DT_INT32
    }
  }
  attr {
    key: "value"
    value {
      tensor {
        dtype: DT_INT32
        tensor_shape {
          dim {
            size: 1
          }
        }
        int_val: 0
      }
    }
  }
}
node {
  name: "report_uninitialized_variables/boolean_mask/Prod"
  op: "Prod"
  input: "report_uninitialized_variables/boolean_mask/strided_slice"
  input: "report_uninitialized_variables/boolean_mask/Prod/reduction_indices"
  device: "/device:CPU:0"
  attr {
    key: "T"
    value {
      type: DT_INT32
    }
  }
  attr {
    key: "Tidx"
    value {
      type: DT_INT32
    }
  }
  attr {
    key: "keep_dims"
    value {
      b: false
    }
  }
}
node {
  name: "report_uninitialized_variables/boolean_mask/Shape_1"
  op: "Const"
  device: "/device:CPU:0"
  attr {
    key: "dtype"
    value {
      type: DT_INT32
    }
  }
  attr {
    key: "value"
    value {
      tensor {
        dtype: DT_INT32
        tensor_shape {
          dim {
            size: 1
          }
        }
        int_val: 271
      }
    }
  }
}
node {
  name: "report_uninitialized_variables/boolean_mask/strided_slice_1/stack"
  op: "Const"
  device: "/device:CPU:0"
  attr {
    key: "dtype"
    value {
      type: DT_INT32
    }
  }
  attr {
    key: "value"
    value {
      tensor {
        dtype: DT_INT32
        tensor_shape {
          dim {
            size: 1
          }
        }
        int_val: 0
      }
    }
  }
}
node {
  name: "report_uninitialized_variables/boolean_mask/strided_slice_1/stack_1"
  op: "Const"
  device: "/device:CPU:0"
  attr {
    key: "dtype"
    value {
      type: DT_INT32
    }
  }
  attr {
    key: "value"
    value {
      tensor {
        dtype: DT_INT32
        tensor_shape {
          dim {
            size: 1
          }
        }
        int_val: 0
      }
    }
  }
}
node {
  name: "report_uninitialized_variables/boolean_mask/strided_slice_1/stack_2"
  op: "Const"
  device: "/device:CPU:0"
  attr {
    key: "dtype"
    value {
      type: DT_INT32
    }
  }
  attr {
    key: "value"
    value {
      tensor {
        dtype: DT_INT32
        tensor_shape {
          dim {
            size: 1
          }
        }
        int_val: 1
      }
    }
  }
}
node {
  name: "report_uninitialized_variables/boolean_mask/strided_slice_1"
  op: "StridedSlice"
  input: "report_uninitialized_variables/boolean_mask/Shape_1"
  input: "report_uninitialized_variables/boolean_mask/strided_slice_1/stack"
  input: "report_uninitialized_variables/boolean_mask/strided_slice_1/stack_1"
  input: "report_uninitialized_variables/boolean_mask/strided_slice_1/stack_2"
  device: "/device:CPU:0"
  attr {
    key: "Index"
    value {
      type: DT_INT32
    }
  }
  attr {
    key: "T"
    value {
      type: DT_INT32
    }
  }
  attr {
    key: "begin_mask"
    value {
      i: 1
    }
  }
  attr {
    key: "ellipsis_mask"
    value {
      i: 0
    }
  }
  attr {
    key: "end_mask"
    value {
      i: 0
    }
  }
  attr {
    key: "new_axis_mask"
    value {
      i: 0
    }
  }
  attr {
    key: "shrink_axis_mask"
    value {
      i: 0
    }
  }
}
node {
  name: "report_uninitialized_variables/boolean_mask/Shape_2"
  op: "Const"
  device: "/device:CPU:0"
  attr {
    key: "dtype"
    value {
      type: DT_INT32
    }
  }
  attr {
    key: "value"
    value {
      tensor {
        dtype: DT_INT32
        tensor_shape {
          dim {
            size: 1
          }
        }
        int_val: 271
      }
    }
  }
}
node {
  name: "report_uninitialized_variables/boolean_mask/strided_slice_2/stack"
  op: "Const"
  device: "/device:CPU:0"
  attr {
    key: "dtype"
    value {
      type: DT_INT32
    }
  }
  attr {
    key: "value"
    value {
      tensor {
        dtype: DT_INT32
        tensor_shape {
          dim {
            size: 1
          }
        }
        int_val: 1
      }
    }
  }
}
node {
  name: "report_uninitialized_variables/boolean_mask/strided_slice_2/stack_1"
  op: "Const"
  device: "/device:CPU:0"
  attr {
    key: "dtype"
    value {
      type: DT_INT32
    }
  }
  attr {
    key: "value"
    value {
      tensor {
        dtype: DT_INT32
        tensor_shape {
          dim {
            size: 1
          }
        }
        int_val: 0
      }
    }
  }
}
node {
  name: "report_uninitialized_variables/boolean_mask/strided_slice_2/stack_2"
  op: "Const"
  device: "/device:CPU:0"
  attr {
    key: "dtype"
    value {
      type: DT_INT32
    }
  }
  attr {
    key: "value"
    value {
      tensor {
        dtype: DT_INT32
        tensor_shape {
          dim {
            size: 1
          }
        }
        int_val: 1
      }
    }
  }
}
node {
  name: "report_uninitialized_variables/boolean_mask/strided_slice_2"
  op: "StridedSlice"
  input: "report_uninitialized_variables/boolean_mask/Shape_2"
  input: "report_uninitialized_variables/boolean_mask/strided_slice_2/stack"
  input: "report_uninitialized_variables/boolean_mask/strided_slice_2/stack_1"
  input: "report_uninitialized_variables/boolean_mask/strided_slice_2/stack_2"
  device: "/device:CPU:0"
  attr {
    key: "Index"
    value {
      type: DT_INT32
    }
  }
  attr {
    key: "T"
    value {
      type: DT_INT32
    }
  }
  attr {
    key: "begin_mask"
    value {
      i: 0
    }
  }
  attr {
    key: "ellipsis_mask"
    value {
      i: 0
    }
  }
  attr {
    key: "end_mask"
    value {
      i: 1
    }
  }
  attr {
    key: "new_axis_mask"
    value {
      i: 0
    }
  }
  attr {
    key: "shrink_axis_mask"
    value {
      i: 0
    }
  }
}
node {
  name: "report_uninitialized_variables/boolean_mask/concat/values_1"
  op: "Pack"
  input: "report_uninitialized_variables/boolean_mask/Prod"
  device: "/device:CPU:0"
  attr {
    key: "N"
    value {
      i: 1
    }
  }
  attr {
    key: "T"
    value {
      type: DT_INT32
    }
  }
  attr {
    key: "axis"
    value {
      i: 0
    }
  }
}
node {
  name: "report_uninitialized_variables/boolean_mask/concat/axis"
  op: "Const"
  device: "/device:CPU:0"
  attr {
    key: "dtype"
    value {
      type: DT_INT32
    }
  }
  attr {
    key: "value"
    value {
      tensor {
        dtype: DT_INT32
        tensor_shape {
        }
        int_val: 0
      }
    }
  }
}
node {
  name: "report_uninitialized_variables/boolean_mask/concat"
  op: "ConcatV2"
  input: "report_uninitialized_variables/boolean_mask/strided_slice_1"
  input: "report_uninitialized_variables/boolean_mask/concat/values_1"
  input: "report_uninitialized_variables/boolean_mask/strided_slice_2"
  input: "report_uninitialized_variables/boolean_mask/concat/axis"
  device: "/device:CPU:0"
  attr {
    key: "N"
    value {
      i: 3
    }
  }
  attr {
    key: "T"
    value {
      type: DT_INT32
    }
  }
  attr {
    key: "Tidx"
    value {
      type: DT_INT32
    }
  }
}
node {
  name: "report_uninitialized_variables/boolean_mask/Reshape"
  op: "Reshape"
  input: "report_uninitialized_variables/Const"
  input: "report_uninitialized_variables/boolean_mask/concat"
  device: "/device:CPU:0"
  attr {
    key: "T"
    value {
      type: DT_STRING
    }
  }
  attr {
    key: "Tshape"
    value {
      type: DT_INT32
    }
  }
}
node {
  name: "report_uninitialized_variables/boolean_mask/Reshape_1/shape"
  op: "Const"
  device: "/device:CPU:0"
  attr {
    key: "dtype"
    value {
      type: DT_INT32
    }
  }
  attr {
    key: "value"
    value {
      tensor {
        dtype: DT_INT32
        tensor_shape {
          dim {
            size: 1
          }
        }
        int_val: -1
      }
    }
  }
}
node {
  name: "report_uninitialized_variables/boolean_mask/Reshape_1"
  op: "Reshape"
  input: "report_uninitialized_variables/LogicalNot"
  input: "report_uninitialized_variables/boolean_mask/Reshape_1/shape"
  device: "/device:CPU:0"
  attr {
    key: "T"
    value {
      type: DT_BOOL
    }
  }
  attr {
    key: "Tshape"
    value {
      type: DT_INT32
    }
  }
}
node {
  name: "report_uninitialized_variables/boolean_mask/Where"
  op: "Where"
  input: "report_uninitialized_variables/boolean_mask/Reshape_1"
  device: "/device:CPU:0"
  attr {
    key: "T"
    value {
      type: DT_BOOL
    }
  }
}
node {
  name: "report_uninitialized_variables/boolean_mask/Squeeze"
  op: "Squeeze"
  input: "report_uninitialized_variables/boolean_mask/Where"
  device: "/device:CPU:0"
  attr {
    key: "T"
    value {
      type: DT_INT64
    }
  }
  attr {
    key: "squeeze_dims"
    value {
      list {
        i: 1
      }
    }
  }
}
node {
  name: "report_uninitialized_variables/boolean_mask/GatherV2/axis"
  op: "Const"
  device: "/device:CPU:0"
  attr {
    key: "dtype"
    value {
      type: DT_INT32
    }
  }
  attr {
    key: "value"
    value {
      tensor {
        dtype: DT_INT32
        tensor_shape {
        }
        int_val: 0
      }
    }
  }
}
node {
  name: "report_uninitialized_variables/boolean_mask/GatherV2"
  op: "GatherV2"
  input: "report_uninitialized_variables/boolean_mask/Reshape"
  input: "report_uninitialized_variables/boolean_mask/Squeeze"
  input: "report_uninitialized_variables/boolean_mask/GatherV2/axis"
  device: "/device:CPU:0"
  attr {
    key: "Taxis"
    value {
      type: DT_INT32
    }
  }
  attr {
    key: "Tindices"
    value {
      type: DT_INT64
    }
  }
  attr {
    key: "Tparams"
    value {
      type: DT_STRING
    }
  }
}
node {
  name: "init_1/NoOp"
  op: "NoOp"
  input: "^global_step/Assign"
  device: "/device:CPU:0"
}
node {
  name: "init_1/NoOp_1"
  op: "NoOp"
  input: "^v/cg/affine0/biases/Assign"
  input: "^v/cg/affine0/weights/Assign"
  input: "^v/cg/conv0/batchnorm0/beta/Assign"
  input: "^v/cg/conv0/batchnorm0/gamma/Assign"
  input: "^v/cg/conv0/batchnorm0/moving_mean/Assign"
  input: "^v/cg/conv0/batchnorm0/moving_variance/Assign"
  input: "^v/cg/conv0/conv2d/kernel/Assign"
  input: "^v/cg/resnet_v10/conv1/batchnorm1/beta/Assign"
  input: "^v/cg/resnet_v10/conv1/batchnorm1/gamma/Assign"
  input: "^v/cg/resnet_v10/conv1/batchnorm1/moving_mean/Assign"
  input: "^v/cg/resnet_v10/conv1/batchnorm1/moving_variance/Assign"
  input: "^v/cg/resnet_v10/conv1/conv2d/kernel/Assign"
  input: "^v/cg/resnet_v10/conv2/batchnorm2/beta/Assign"
  input: "^v/cg/resnet_v10/conv2/batchnorm2/gamma/Assign"
  input: "^v/cg/resnet_v10/conv2/batchnorm2/moving_mean/Assign"
  input: "^v/cg/resnet_v10/conv2/batchnorm2/moving_variance/Assign"
  input: "^v/cg/resnet_v10/conv2/conv2d/kernel/Assign"
  input: "^v/cg/resnet_v10/conv3/batchnorm3/beta/Assign"
  input: "^v/cg/resnet_v10/conv3/batchnorm3/gamma/Assign"
  input: "^v/cg/resnet_v10/conv3/batchnorm3/moving_mean/Assign"
  input: "^v/cg/resnet_v10/conv3/batchnorm3/moving_variance/Assign"
  input: "^v/cg/resnet_v10/conv3/conv2d/kernel/Assign"
  input: "^v/cg/resnet_v10/conv4/batchnorm4/beta/Assign"
  input: "^v/cg/resnet_v10/conv4/batchnorm4/gamma/Assign"
  input: "^v/cg/resnet_v10/conv4/batchnorm4/moving_mean/Assign"
  input: "^v/cg/resnet_v10/conv4/batchnorm4/moving_variance/Assign"
  input: "^v/cg/resnet_v10/conv4/conv2d/kernel/Assign"
  input: "^v/cg/resnet_v11/conv5/batchnorm5/beta/Assign"
  input: "^v/cg/resnet_v11/conv5/batchnorm5/gamma/Assign"
  input: "^v/cg/resnet_v11/conv5/batchnorm5/moving_mean/Assign"
  input: "^v/cg/resnet_v11/conv5/batchnorm5/moving_variance/Assign"
  input: "^v/cg/resnet_v11/conv5/conv2d/kernel/Assign"
  input: "^v/cg/resnet_v11/conv6/batchnorm6/beta/Assign"
  input: "^v/cg/resnet_v11/conv6/batchnorm6/gamma/Assign"
  input: "^v/cg/resnet_v11/conv6/batchnorm6/moving_mean/Assign"
  input: "^v/cg/resnet_v11/conv6/batchnorm6/moving_variance/Assign"
  input: "^v/cg/resnet_v11/conv6/conv2d/kernel/Assign"
  input: "^v/cg/resnet_v11/conv7/batchnorm7/beta/Assign"
  input: "^v/cg/resnet_v11/conv7/batchnorm7/gamma/Assign"
  input: "^v/cg/resnet_v11/conv7/batchnorm7/moving_mean/Assign"
  input: "^v/cg/resnet_v11/conv7/batchnorm7/moving_variance/Assign"
  input: "^v/cg/resnet_v11/conv7/conv2d/kernel/Assign"
  input: "^v/cg/resnet_v110/conv34/batchnorm34/beta/Assign"
  input: "^v/cg/resnet_v110/conv34/batchnorm34/gamma/Assign"
  input: "^v/cg/resnet_v110/conv34/batchnorm34/moving_mean/Assign"
  input: "^v/cg/resnet_v110/conv34/batchnorm34/moving_variance/Assign"
  input: "^v/cg/resnet_v110/conv34/conv2d/kernel/Assign"
  input: "^v/cg/resnet_v110/conv35/batchnorm35/beta/Assign"
  input: "^v/cg/resnet_v110/conv35/batchnorm35/gamma/Assign"
  input: "^v/cg/resnet_v110/conv35/batchnorm35/moving_mean/Assign"
  input: "^v/cg/resnet_v110/conv35/batchnorm35/moving_variance/Assign"
  input: "^v/cg/resnet_v110/conv35/conv2d/kernel/Assign"
  input: "^v/cg/resnet_v110/conv36/batchnorm36/beta/Assign"
  input: "^v/cg/resnet_v110/conv36/batchnorm36/gamma/Assign"
  input: "^v/cg/resnet_v110/conv36/batchnorm36/moving_mean/Assign"
  input: "^v/cg/resnet_v110/conv36/batchnorm36/moving_variance/Assign"
  input: "^v/cg/resnet_v110/conv36/conv2d/kernel/Assign"
  input: "^v/cg/resnet_v111/conv37/batchnorm37/beta/Assign"
  input: "^v/cg/resnet_v111/conv37/batchnorm37/gamma/Assign"
  input: "^v/cg/resnet_v111/conv37/batchnorm37/moving_mean/Assign"
  input: "^v/cg/resnet_v111/conv37/batchnorm37/moving_variance/Assign"
  input: "^v/cg/resnet_v111/conv37/conv2d/kernel/Assign"
  input: "^v/cg/resnet_v111/conv38/batchnorm38/beta/Assign"
  input: "^v/cg/resnet_v111/conv38/batchnorm38/gamma/Assign"
  input: "^v/cg/resnet_v111/conv38/batchnorm38/moving_mean/Assign"
  input: "^v/cg/resnet_v111/conv38/batchnorm38/moving_variance/Assign"
  input: "^v/cg/resnet_v111/conv38/conv2d/kernel/Assign"
  input: "^v/cg/resnet_v111/conv39/batchnorm39/beta/Assign"
  input: "^v/cg/resnet_v111/conv39/batchnorm39/gamma/Assign"
  input: "^v/cg/resnet_v111/conv39/batchnorm39/moving_mean/Assign"
  input: "^v/cg/resnet_v111/conv39/batchnorm39/moving_variance/Assign"
  input: "^v/cg/resnet_v111/conv39/conv2d/kernel/Assign"
  input: "^v/cg/resnet_v112/conv40/batchnorm40/beta/Assign"
  input: "^v/cg/resnet_v112/conv40/batchnorm40/gamma/Assign"
  input: "^v/cg/resnet_v112/conv40/batchnorm40/moving_mean/Assign"
  input: "^v/cg/resnet_v112/conv40/batchnorm40/moving_variance/Assign"
  input: "^v/cg/resnet_v112/conv40/conv2d/kernel/Assign"
  input: "^v/cg/resnet_v112/conv41/batchnorm41/beta/Assign"
  input: "^v/cg/resnet_v112/conv41/batchnorm41/gamma/Assign"
  input: "^v/cg/resnet_v112/conv41/batchnorm41/moving_mean/Assign"
  input: "^v/cg/resnet_v112/conv41/batchnorm41/moving_variance/Assign"
  input: "^v/cg/resnet_v112/conv41/conv2d/kernel/Assign"
  input: "^v/cg/resnet_v112/conv42/batchnorm42/beta/Assign"
  input: "^v/cg/resnet_v112/conv42/batchnorm42/gamma/Assign"
  input: "^v/cg/resnet_v112/conv42/batchnorm42/moving_mean/Assign"
  input: "^v/cg/resnet_v112/conv42/batchnorm42/moving_variance/Assign"
  input: "^v/cg/resnet_v112/conv42/conv2d/kernel/Assign"
  input: "^v/cg/resnet_v113/conv43/batchnorm43/beta/Assign"
  input: "^v/cg/resnet_v113/conv43/batchnorm43/gamma/Assign"
  input: "^v/cg/resnet_v113/conv43/batchnorm43/moving_mean/Assign"
  input: "^v/cg/resnet_v113/conv43/batchnorm43/moving_variance/Assign"
  input: "^v/cg/resnet_v113/conv43/conv2d/kernel/Assign"
  input: "^v/cg/resnet_v113/conv44/batchnorm44/beta/Assign"
  input: "^v/cg/resnet_v113/conv44/batchnorm44/gamma/Assign"
  input: "^v/cg/resnet_v113/conv44/batchnorm44/moving_mean/Assign"
  input: "^v/cg/resnet_v113/conv44/batchnorm44/moving_variance/Assign"
  input: "^v/cg/resnet_v113/conv44/conv2d/kernel/Assign"
  input: "^v/cg/resnet_v113/conv45/batchnorm45/beta/Assign"
  input: "^v/cg/resnet_v113/conv45/batchnorm45/gamma/Assign"
  input: "^v/cg/resnet_v113/conv45/batchnorm45/moving_mean/Assign"
  input: "^v/cg/resnet_v113/conv45/batchnorm45/moving_variance/Assign"
  input: "^v/cg/resnet_v113/conv45/conv2d/kernel/Assign"
  input: "^v/cg/resnet_v113/conv46/batchnorm46/beta/Assign"
  input: "^v/cg/resnet_v113/conv46/batchnorm46/gamma/Assign"
  input: "^v/cg/resnet_v113/conv46/batchnorm46/moving_mean/Assign"
  input: "^v/cg/resnet_v113/conv46/batchnorm46/moving_variance/Assign"
  input: "^v/cg/resnet_v113/conv46/conv2d/kernel/Assign"
  input: "^v/cg/resnet_v114/conv47/batchnorm47/beta/Assign"
  input: "^v/cg/resnet_v114/conv47/batchnorm47/gamma/Assign"
  input: "^v/cg/resnet_v114/conv47/batchnorm47/moving_mean/Assign"
  input: "^v/cg/resnet_v114/conv47/batchnorm47/moving_variance/Assign"
  input: "^v/cg/resnet_v114/conv47/conv2d/kernel/Assign"
  input: "^v/cg/resnet_v114/conv48/batchnorm48/beta/Assign"
  input: "^v/cg/resnet_v114/conv48/batchnorm48/gamma/Assign"
  input: "^v/cg/resnet_v114/conv48/batchnorm48/moving_mean/Assign"
  input: "^v/cg/resnet_v114/conv48/batchnorm48/moving_variance/Assign"
  input: "^v/cg/resnet_v114/conv48/conv2d/kernel/Assign"
  input: "^v/cg/resnet_v114/conv49/batchnorm49/beta/Assign"
  input: "^v/cg/resnet_v114/conv49/batchnorm49/gamma/Assign"
  input: "^v/cg/resnet_v114/conv49/batchnorm49/moving_mean/Assign"
  input: "^v/cg/resnet_v114/conv49/batchnorm49/moving_variance/Assign"
  input: "^v/cg/resnet_v114/conv49/conv2d/kernel/Assign"
  input: "^v/cg/resnet_v115/conv50/batchnorm50/beta/Assign"
  input: "^v/cg/resnet_v115/conv50/batchnorm50/gamma/Assign"
  input: "^v/cg/resnet_v115/conv50/batchnorm50/moving_mean/Assign"
  input: "^v/cg/resnet_v115/conv50/batchnorm50/moving_variance/Assign"
  input: "^v/cg/resnet_v115/conv50/conv2d/kernel/Assign"
  input: "^v/cg/resnet_v115/conv51/batchnorm51/beta/Assign"
  input: "^v/cg/resnet_v115/conv51/batchnorm51/gamma/Assign"
  input: "^v/cg/resnet_v115/conv51/batchnorm51/moving_mean/Assign"
  input: "^v/cg/resnet_v115/conv51/batchnorm51/moving_variance/Assign"
  input: "^v/cg/resnet_v115/conv51/conv2d/kernel/Assign"
  input: "^v/cg/resnet_v115/conv52/batchnorm52/beta/Assign"
  input: "^v/cg/resnet_v115/conv52/batchnorm52/gamma/Assign"
  input: "^v/cg/resnet_v115/conv52/batchnorm52/moving_mean/Assign"
  input: "^v/cg/resnet_v115/conv52/batchnorm52/moving_variance/Assign"
  input: "^v/cg/resnet_v115/conv52/conv2d/kernel/Assign"
  input: "^v/cg/resnet_v12/conv10/batchnorm10/beta/Assign"
  input: "^v/cg/resnet_v12/conv10/batchnorm10/gamma/Assign"
  input: "^v/cg/resnet_v12/conv10/batchnorm10/moving_mean/Assign"
  input: "^v/cg/resnet_v12/conv10/batchnorm10/moving_variance/Assign"
  input: "^v/cg/resnet_v12/conv10/conv2d/kernel/Assign"
  input: "^v/cg/resnet_v12/conv8/batchnorm8/beta/Assign"
  input: "^v/cg/resnet_v12/conv8/batchnorm8/gamma/Assign"
  input: "^v/cg/resnet_v12/conv8/batchnorm8/moving_mean/Assign"
  input: "^v/cg/resnet_v12/conv8/batchnorm8/moving_variance/Assign"
  input: "^v/cg/resnet_v12/conv8/conv2d/kernel/Assign"
  input: "^v/cg/resnet_v12/conv9/batchnorm9/beta/Assign"
  input: "^v/cg/resnet_v12/conv9/batchnorm9/gamma/Assign"
  input: "^v/cg/resnet_v12/conv9/batchnorm9/moving_mean/Assign"
  input: "^v/cg/resnet_v12/conv9/batchnorm9/moving_variance/Assign"
  input: "^v/cg/resnet_v12/conv9/conv2d/kernel/Assign"
  input: "^v/cg/resnet_v13/conv11/batchnorm11/beta/Assign"
  input: "^v/cg/resnet_v13/conv11/batchnorm11/gamma/Assign"
  input: "^v/cg/resnet_v13/conv11/batchnorm11/moving_mean/Assign"
  input: "^v/cg/resnet_v13/conv11/batchnorm11/moving_variance/Assign"
  input: "^v/cg/resnet_v13/conv11/conv2d/kernel/Assign"
  input: "^v/cg/resnet_v13/conv12/batchnorm12/beta/Assign"
  input: "^v/cg/resnet_v13/conv12/batchnorm12/gamma/Assign"
  input: "^v/cg/resnet_v13/conv12/batchnorm12/moving_mean/Assign"
  input: "^v/cg/resnet_v13/conv12/batchnorm12/moving_variance/Assign"
  input: "^v/cg/resnet_v13/conv12/conv2d/kernel/Assign"
  input: "^v/cg/resnet_v13/conv13/batchnorm13/beta/Assign"
  input: "^v/cg/resnet_v13/conv13/batchnorm13/gamma/Assign"
  input: "^v/cg/resnet_v13/conv13/batchnorm13/moving_mean/Assign"
  input: "^v/cg/resnet_v13/conv13/batchnorm13/moving_variance/Assign"
  input: "^v/cg/resnet_v13/conv13/conv2d/kernel/Assign"
  input: "^v/cg/resnet_v13/conv14/batchnorm14/beta/Assign"
  input: "^v/cg/resnet_v13/conv14/batchnorm14/gamma/Assign"
  input: "^v/cg/resnet_v13/conv14/batchnorm14/moving_mean/Assign"
  input: "^v/cg/resnet_v13/conv14/batchnorm14/moving_variance/Assign"
  input: "^v/cg/resnet_v13/conv14/conv2d/kernel/Assign"
  input: "^v/cg/resnet_v14/conv15/batchnorm15/beta/Assign"
  input: "^v/cg/resnet_v14/conv15/batchnorm15/gamma/Assign"
  input: "^v/cg/resnet_v14/conv15/batchnorm15/moving_mean/Assign"
  input: "^v/cg/resnet_v14/conv15/batchnorm15/moving_variance/Assign"
  input: "^v/cg/resnet_v14/conv15/conv2d/kernel/Assign"
  input: "^v/cg/resnet_v14/conv16/batchnorm16/beta/Assign"
  input: "^v/cg/resnet_v14/conv16/batchnorm16/gamma/Assign"
  input: "^v/cg/resnet_v14/conv16/batchnorm16/moving_mean/Assign"
  input: "^v/cg/resnet_v14/conv16/batchnorm16/moving_variance/Assign"
  input: "^v/cg/resnet_v14/conv16/conv2d/kernel/Assign"
  input: "^v/cg/resnet_v14/conv17/batchnorm17/beta/Assign"
  input: "^v/cg/resnet_v14/conv17/batchnorm17/gamma/Assign"
  input: "^v/cg/resnet_v14/conv17/batchnorm17/moving_mean/Assign"
  input: "^v/cg/resnet_v14/conv17/batchnorm17/moving_variance/Assign"
  input: "^v/cg/resnet_v14/conv17/conv2d/kernel/Assign"
  input: "^v/cg/resnet_v15/conv18/batchnorm18/beta/Assign"
  input: "^v/cg/resnet_v15/conv18/batchnorm18/gamma/Assign"
  input: "^v/cg/resnet_v15/conv18/batchnorm18/moving_mean/Assign"
  input: "^v/cg/resnet_v15/conv18/batchnorm18/moving_variance/Assign"
  input: "^v/cg/resnet_v15/conv18/conv2d/kernel/Assign"
  input: "^v/cg/resnet_v15/conv19/batchnorm19/beta/Assign"
  input: "^v/cg/resnet_v15/conv19/batchnorm19/gamma/Assign"
  input: "^v/cg/resnet_v15/conv19/batchnorm19/moving_mean/Assign"
  input: "^v/cg/resnet_v15/conv19/batchnorm19/moving_variance/Assign"
  input: "^v/cg/resnet_v15/conv19/conv2d/kernel/Assign"
  input: "^v/cg/resnet_v15/conv20/batchnorm20/beta/Assign"
  input: "^v/cg/resnet_v15/conv20/batchnorm20/gamma/Assign"
  input: "^v/cg/resnet_v15/conv20/batchnorm20/moving_mean/Assign"
  input: "^v/cg/resnet_v15/conv20/batchnorm20/moving_variance/Assign"
  input: "^v/cg/resnet_v15/conv20/conv2d/kernel/Assign"
  input: "^v/cg/resnet_v16/conv21/batchnorm21/beta/Assign"
  input: "^v/cg/resnet_v16/conv21/batchnorm21/gamma/Assign"
  input: "^v/cg/resnet_v16/conv21/batchnorm21/moving_mean/Assign"
  input: "^v/cg/resnet_v16/conv21/batchnorm21/moving_variance/Assign"
  input: "^v/cg/resnet_v16/conv21/conv2d/kernel/Assign"
  input: "^v/cg/resnet_v16/conv22/batchnorm22/beta/Assign"
  input: "^v/cg/resnet_v16/conv22/batchnorm22/gamma/Assign"
  input: "^v/cg/resnet_v16/conv22/batchnorm22/moving_mean/Assign"
  input: "^v/cg/resnet_v16/conv22/batchnorm22/moving_variance/Assign"
  input: "^v/cg/resnet_v16/conv22/conv2d/kernel/Assign"
  input: "^v/cg/resnet_v16/conv23/batchnorm23/beta/Assign"
  input: "^v/cg/resnet_v16/conv23/batchnorm23/gamma/Assign"
  input: "^v/cg/resnet_v16/conv23/batchnorm23/moving_mean/Assign"
  input: "^v/cg/resnet_v16/conv23/batchnorm23/moving_variance/Assign"
  input: "^v/cg/resnet_v16/conv23/conv2d/kernel/Assign"
  input: "^v/cg/resnet_v17/conv24/batchnorm24/beta/Assign"
  input: "^v/cg/resnet_v17/conv24/batchnorm24/gamma/Assign"
  input: "^v/cg/resnet_v17/conv24/batchnorm24/moving_mean/Assign"
  input: "^v/cg/resnet_v17/conv24/batchnorm24/moving_variance/Assign"
  input: "^v/cg/resnet_v17/conv24/conv2d/kernel/Assign"
  input: "^v/cg/resnet_v17/conv25/batchnorm25/beta/Assign"
  input: "^v/cg/resnet_v17/conv25/batchnorm25/gamma/Assign"
  input: "^v/cg/resnet_v17/conv25/batchnorm25/moving_mean/Assign"
  input: "^v/cg/resnet_v17/conv25/batchnorm25/moving_variance/Assign"
  input: "^v/cg/resnet_v17/conv25/conv2d/kernel/Assign"
  input: "^v/cg/resnet_v17/conv26/batchnorm26/beta/Assign"
  input: "^v/cg/resnet_v17/conv26/batchnorm26/gamma/Assign"
  input: "^v/cg/resnet_v17/conv26/batchnorm26/moving_mean/Assign"
  input: "^v/cg/resnet_v17/conv26/batchnorm26/moving_variance/Assign"
  input: "^v/cg/resnet_v17/conv26/conv2d/kernel/Assign"
  input: "^v/cg/resnet_v17/conv27/batchnorm27/beta/Assign"
  input: "^v/cg/resnet_v17/conv27/batchnorm27/gamma/Assign"
  input: "^v/cg/resnet_v17/conv27/batchnorm27/moving_mean/Assign"
  input: "^v/cg/resnet_v17/conv27/batchnorm27/moving_variance/Assign"
  input: "^v/cg/resnet_v17/conv27/conv2d/kernel/Assign"
  input: "^v/cg/resnet_v18/conv28/batchnorm28/beta/Assign"
  input: "^v/cg/resnet_v18/conv28/batchnorm28/gamma/Assign"
  input: "^v/cg/resnet_v18/conv28/batchnorm28/moving_mean/Assign"
  input: "^v/cg/resnet_v18/conv28/batchnorm28/moving_variance/Assign"
  input: "^v/cg/resnet_v18/conv28/conv2d/kernel/Assign"
  input: "^v/cg/resnet_v18/conv29/batchnorm29/beta/Assign"
  input: "^v/cg/resnet_v18/conv29/batchnorm29/gamma/Assign"
  input: "^v/cg/resnet_v18/conv29/batchnorm29/moving_mean/Assign"
  input: "^v/cg/resnet_v18/conv29/batchnorm29/moving_variance/Assign"
  input: "^v/cg/resnet_v18/conv29/conv2d/kernel/Assign"
  input: "^v/cg/resnet_v18/conv30/batchnorm30/beta/Assign"
  input: "^v/cg/resnet_v18/conv30/batchnorm30/gamma/Assign"
  input: "^v/cg/resnet_v18/conv30/batchnorm30/moving_mean/Assign"
  input: "^v/cg/resnet_v18/conv30/batchnorm30/moving_variance/Assign"
  input: "^v/cg/resnet_v18/conv30/conv2d/kernel/Assign"
  input: "^v/cg/resnet_v19/conv31/batchnorm31/beta/Assign"
  input: "^v/cg/resnet_v19/conv31/batchnorm31/gamma/Assign"
  input: "^v/cg/resnet_v19/conv31/batchnorm31/moving_mean/Assign"
  input: "^v/cg/resnet_v19/conv31/batchnorm31/moving_variance/Assign"
  input: "^v/cg/resnet_v19/conv31/conv2d/kernel/Assign"
  input: "^v/cg/resnet_v19/conv32/batchnorm32/beta/Assign"
  input: "^v/cg/resnet_v19/conv32/batchnorm32/gamma/Assign"
  input: "^v/cg/resnet_v19/conv32/batchnorm32/moving_mean/Assign"
  input: "^v/cg/resnet_v19/conv32/batchnorm32/moving_variance/Assign"
  input: "^v/cg/resnet_v19/conv32/conv2d/kernel/Assign"
  input: "^v/cg/resnet_v19/conv33/batchnorm33/beta/Assign"
  input: "^v/cg/resnet_v19/conv33/batchnorm33/gamma/Assign"
  input: "^v/cg/resnet_v19/conv33/batchnorm33/moving_mean/Assign"
  input: "^v/cg/resnet_v19/conv33/batchnorm33/moving_variance/Assign"
  input: "^v/cg/resnet_v19/conv33/conv2d/kernel/Assign"
  device: "/job:localhost/replica:0/task:0/device:NGRAPH:0"
}
node {
  name: "init_1"
  op: "NoOp"
  input: "^init_1/NoOp"
  input: "^init_1/NoOp_1"
}
versions {
  producer: 26
}
